PyTorch/nn/models/cifar10_20.pth (torch_old, 584123 bytes, 10 tensors)

model1.0.weight f4 [32, 3, 5, 5]
0.047379296 -0.013404781 -0.1902107 0.0783979 -0.056496073 -0.0697224 0.059190135 -0.122037604
0.10962411 -0.05732394 -0.0011286077 -0.11058369 -0.23717144 0.09312344 -0.12304388 -0.17835881
-0.023650063 -0.24179932 0.079963475 -0.15801737 -0.06691577 -0.1384309 -0.10330254 0.12627447
-0.059721846 0.1404799 -0.09127467 -0.19482757 0.11444923 0.084555395 0.14503892 0.0010977935
-0.12544532 0.16071089 0.039325055 0.15951799 0.1500001 -0.21583112 0.112855926 0.08924776
-0.008313302 0.10338494 -0.15020657 0.040125567 -0.09471706 0.11833482 0.14465973 -0.13621719
0.19913782 0.017922796 -0.069521256 -0.08139624 0.03592802 -0.023205822 -0.1074147 0.155603
0.15322791 0.043545254 0.21325696 0.11815109 0.063855395 0.1338057 -0.15684451 0.08140856
0.112562425 -0.02833927 0.047153328 -0.0075099454 0.10228319 -0.14990526 -0.006423491 0.014297056
-0.07323293 0.16173838 -0.11873034 -0.01206228 -0.11001378 -0.14095391 -0.12016602 -0.098540336
-0.11965096 -0.017348915 -0.10807308 -0.18174763 -0.004866726 -0.071253926 -0.16489363 -0.24634252
-0.18927403 -0.0657857 -0.15898898 -0.21395692 -0.10512884 -0.17846152 0.05969451 -0.16326077
-0.08378862 -0.043406557 -0.11354664 -0.07877996 -0.07341861 0.015364411 0.15119253 0.08309466
0.07672204 0.07553901 0.14192766 0.16754146 0.09383261 0.03191737 0.07305706 -0.022698337
-0.11651726 -0.07138647 -0.06493481 0.043050747 -0.043096874 -0.08719073 0.11067697 -0.086117335
0.07422198 0.03107115 0.014242122 0.09022366 0.07177192 0.14549537 0.09965504 0.24157867
0.11226757 0.055720937 0.1703568 0.15540995 0.18615767 0.255154 0.14866617 0.14804368
0.07361125 0.12094454 0.22617123 -0.023792872 0.017484637 0.1431992 0.17600174 0.10573373
0.1566303 -0.03204774 0.07850773 0.06085631 -0.019620579 0.013765874 -0.043853942 0.007367908
0.0070591182 -0.09981058 0.078674704 -0.2135955 0.035516858 0.032300763 -0.12441917 0.1351353
0.008674589 -0.002649211 0.18787304 -0.0014330687 0.033099905 -0.0087346295 0.18140146 0.14799488
-0.07143543 0.1447017 -0.047398444 0.038276114 -0.072771125 -0.067763105 0.16113439 -0.10999892
-0.1130501 -0.09163344 -0.15440787 0.006616009 -0.2364775 0.10493087 -0.02898751 0.0011829442
0.075010434 -0.19295102 0.034049742 0.12558955 0.017032724 0.11354593 -0.0970187 -0.015057794
-0.10441687 -0.17632595 -0.037499905 0.051071126 0.10313561 0.037822764 0.037974894 0.09293771
-0.16564079 -0.019679312 0.13214992 -0.16316715 0.021720307 -0.08518598 0.053968377 0.059523225
0.007738645 0.040328756 -0.07365868 0.13899134 0.15674913 -0.004937906 -0.096091315 -0.02708138
0.08030647 -0.10707623 -0.10648644 -0.0014839353 0.005859536 0.12732479 -0.105635546 0.07754592
0.013371582 0.013135238 0.027446749 -0.015759993 0.08648934 -0.017303357 -0.19896802 -0.12486501
-0.19870837 -0.04058974 -0.13723403 0.07429327 -0.117607705 -0.17619777 0.055475965 -0.116298474
-0.08229733 -0.023135995 0.00243884 -0.03662631 0.05188284 0.00863709 0.02949184 -0.07849599
0.17614949 0.13889892 -0.10755058 0.041118298 0.13007833 0.0012354049 -0.05677928 -0.116433136
00000000: cb10 423d ba9f 5bbc 98c6 42be 148f a03d
00000010: 6d68 67bd 9eca 8ebd 5b71 723d daee f9bd
00000020: 9b82 e03d 82cc 6abd caed 93ba b479 e2bd
00000030: 12dd 72be 81b7 be3d 6efe fbbd b1a3 36be
00000040: c7bd c1bc 3e9a 77be e4c3 a33d 4ecf 21be
00000050: 230b 89bd d4c0 0dbe 4890 d3bd 184e 013e
00000060: e59e 74bd f7d9 0f3e 37ee babd e180 47be
00000070: 5c64 ea3d 612b ad3d 1585 143e d6e3 8f3a
00000080: bd74 00be 6591 243e 4f13 213d af58 233e
00000090: a099 193e d502 5dbe 0221 e73d 88c7 b63d
000000a0: 8434 08bc 7cbb d33d c0cf 19be b55a 243d
000000b0: 05fb c1bd 8759 f23d ae21 143e 857c 0bbe
000000c0: c9ea 4b3e d4d2 923c 2961 8ebd 12b3 a6bd
000000d0: 4229 133d 231a bebc 3dfc dbbd 6556 1f3e
000000e0: c7e7 1c3e 825c 323d 0860 5a3e 33f9 f13d
000000f0: 9ec6 823d 5d04 093e d99b 20be 88b9 a63d
00000100: 2187 e63d c227 e8bc d923 413d fd15 f6bb
00000110: d979 d13d c480 19be 267c d2bb 333e 6a3c
00000120: 25fb 95bd bf9e 253e e428 f3bd dfa0 45bc
00000130: e84e e1bd 3956 10be 9a19 f6bd 84cf c9bd
00000140: 900b f5bd 501f 8ebc 6b55 ddbd 0d1c 3abe
00000150: 0f79 9fbb 94ed 91bd e0d9 28be 3741 7cbe
00000160: 0dd1 41be a7ba 86bd 02ce 22be 8617 5bbe
00000170: ca4d d7bd 9ebe 36be 3b82 743d d52d 27be
00000180: 5e99 abbd 13cb 31bd 248b e8bd 6357 a1bd
00000190: 7f5c 96bd 03bb 7b3c 37d2 1a3e 882d aa3d
000001a0: 7220 9d3d 32b4 9a3d 7c55 113e fd8f 2b3e
000001b0: 502b c03d cabb 023d f19e 953d ddf1 b9bc
000001c0: 9aa0 eebd 1233 92bd 8bfc 84bd fb55 303d
000001d0: 5986 30bd 0e91 b2bd 9baa e23d 495e b0bd
000001e0: b201 983d ed88 fe3c ca57 693c 2fc7 b83d
000001f0: 28fd 923d bdfc 143e f117 cc3d 6660 773e
00000200: 8aec e53d a33b 643d 0372 2e3e c923 1f3e
00000210: 1ea0 3e3e 8ca3 823e f23b 183e c398 173e
00000220: 7fc1 963d c5b1 f73d 6e99 673e 45e9 c2bc
00000230: f13b 8f3c d0a2 123e cd39 343e ed8a d83d
00000240: b263 203e 7e44 03bd a9c8 a03d 7744 793d
00000250: 56bb a0bc 438a 613c 31a0 33bd 7e6e f13b
00000260: 2d50 e73b 7d69 ccbd 3420 a13d c7b8 5abe
00000270: 207a 113d ce4d 043d 7acf febd e860 0a3e
00000280: dd1f 0e3c 639e 2dbb ca61 403e ced5 bbba
00000290: c493 073d b11b 0fbc 4ec1 393e f88b 173e
000002a0: bd4c 92bd af2c 143e df24 42bd 6ac7 1c3d
000002b0: 0709 95bd 62c7 8abd 6a00 253e 1d47 e1bd
000002c0: d086 e7bd 50aa bbbd 191d 1ebe 1bcb d83b
000002d0: 2827 72be ffe5 d63d 3777 edbc 050d 9b3a
000002e0: 129f 993d f494 45be be77 0b3d 8c9a 003e
000002f0: 3688 8b3c c58a e83d bdb1 c6bd f7b4 76bc
00000300: 83d8 d5bd ca8e 34be 8099 19bd f52f 513d
00000310: c338 d33d 0bec 1a3d 908b 1b3d 2056 be3d
00000320: bd9d 29be 8236 a1bc 4f52 073e 4a15 27be
00000330: c9ee b13c fd75 aebd f20d 5d3d a0ce 733d
00000340: 7694 fd3b c42f 253d 5dda 96bd bf53 0e3e
00000350: d882 203e 28ce a1bb 86cb c4bd c5d9 ddbc
00000360: b877 a43d c84a dbbd 9015 dabd 9b80 c2ba
00000370: 5a01 c03b 6e61 023e 7357 d8bd 65d0 9e3d
00000380: 7b14 5b3c 2e35 573c 01d8 e03c 1a1b 81bc
00000390: 5321 b13d c5bf 8dbc 46be 4bbe 3ab9 ffbd
000003a0: 357a 4bbe 6d41 26bd 1487 0cbe 1227 983d
000003b0: 4fdc f0bd 306d 34be c43a 633d e52d eebd
000003c0: 818b a8bd b387 bdbc f2d4 1f3b 7805 16bd
000003d0: 1a83 543d 9582 0d3c df98 f13c 81c2 a0bd
000003e0: 8860 343e 853b 0e3e 7a43 dcbd a96b 283d
000003f0: 4133 053e 4fed a13a 6491 68bd 7f74 eebd

model1.0.bias f4 [32]
-0.044366673 -0.34479252 0.011670444 0.17916818 0.054631524 -0.014826116 -0.33165696 0.057276636
-0.12389746 -0.11780125 -0.2200803 0.20581733 -0.16512717 -0.062591225 0.06196707 -0.19811559
-0.13269717 0.054708447 -0.14945199 0.07128004 0.19507621 -0.261319 -0.055329666 -0.13466638
0.37220797 0.2049352 -0.14217149 0.07945457 -0.02878497 -0.21653616 -0.017961271 -0.01118739
00000000: d4b9 35bd a588 b0be 6435 3f3c dd77 373e
00000010: 4ec5 5f3d 3de9 72bc f1ce a9be e89a 6a3d
00000020: f4bd fdbd c841 f1bd bb5c 61be c7c1 523e
00000030: 1917 29be d42f 80bd 2fd1 7d3d d0de 4abe
00000040: c4e1 07be f715 603d f109 19be 45fb 913d
00000050: 0fc2 473e 9bcb 85be 5ca1 62bd fce5 09be
00000060: 0b92 be3e 88da 513e 6795 11be 14b9 a23d
00000070: 75ce ebbc a8bb 5dbe 8423 93bc 514b 37bc

model1.2.weight f4 [32, 32, 5, 5]
-0.011197937 -0.01986919 -0.009133 -0.07932414 -0.07898225 -0.061451912 -0.045007396 -0.05227714
-0.051027548 -0.01900949 -0.012248199 0.012894277 0.0370815 0.014087474 0.017391825 0.024406858
-0.0066106953 -0.0114686005 0.02057199 -0.03579547 0.019702956 0.053473465 0.009608521 0.0038316974
-0.004415315 -0.023923352 0.05122153 -0.018141609 -0.032002788 -0.082665 -0.00396001 0.017998954
-0.0176814 -0.037987545 -0.084745534 0.051654134 0.07871669 0.096663 0.036321722 -0.035797983
-0.017716262 0.08064969 0.0778351 0.04155223 3.3734723e-05 -0.016390063 0.09806405 0.0758237
0.004661671 0.00055989716 -0.049094878 -0.05726993 -0.009112464 -0.047900636 -0.02258233 -0.008906077
-0.06730629 -0.043462966 -0.0671901 -0.049002632 0.006551593 0.009467962 0.012312607 0.01281525
-0.026836017 -0.025124172 -0.018244145 -0.019062756 0.011044958 0.014677945 0.05230116 0.0054181176
0.0005125302 0.044935647 0.00080584973 -0.042751245 -0.043651246 -0.04079122 -0.027283385 0.027869165
-0.020326592 -0.022476444 -0.029179482 2.1895412e-05 0.022341115 0.019351887 0.04547047 0.038848918
0.030020226 0.011276373 0.008539789 0.0051082377 0.022743672 0.018299814 0.01872745 -0.015341364
-0.012387118 -0.034158472 0.020187493 0.031006705 -0.00069614383 0.025682326 -0.011366222 0.022187017
-0.031036438 0.008851971 -0.024785727 -0.04166018 0.024491446 -0.0068178927 0.015201853 -0.01269607
-0.0064715235 -0.009449143 0.043314334 -0.011899459 -0.025278768 -0.02370606 -0.0057263956 0.016751245
0.004318539 0.009603944 0.036701273 0.04096437 0.02118309 -0.023091108 -0.016764488 -0.019264916
0.019011494 0.026236001 -0.049711388 -0.051702693 -0.040650617 0.02883914 -0.011482022 -0.0365146
-0.068294555 -0.038911067 -0.0412677 -0.0016561194 0.00014868534 -0.041025907 -0.034205113 -0.021006595
0.056595806 0.02636141 -0.030694235 -0.04440961 -0.0139205335 0.05263069 0.018774077 -0.033922557
-0.041915067 -0.017624544 -0.02062432 -0.00222272 0.01291821 0.016562112 -0.0154089555 -0.00699564
0.020252325 0.0448503 0.057002515 0.039284594 -0.0067669153 -0.011574385 0.07793666 0.087359115
0.00030529525 0.038916744 -0.028462317 -0.008017902 0.025410568 0.01501299 -0.0042053093 0.007066941
-0.03487245 -0.057780184 -0.039573416 -0.0051716696 0.018493501 -0.010636381 -0.06100548 -0.04275384
-0.037022803 -0.012459669 -0.0010281259 -0.055986933 -0.024761843 -0.020951888 0.002565372 -0.022879068
0.0076619154 -0.03024135 -0.0012006591 -0.015679136 -0.014184141 -0.054852832 0.02618246 0.0024286811
-0.016616095 0.014191366 0.0052677165 0.013577505 -0.032588568 -0.02646282 -0.050056938 -0.0012708824
-0.0003240222 0.033775352 -0.02724806 -0.023897614 0.0094301095 -0.028428772 -0.0006609066 -0.0042154207
0.016661605 -0.0496292 -0.002017363 -0.045172524 0.010245758 0.017680122 -0.0045815096 0.046114687
0.020533733 -0.016879652 -0.0699012 -0.04195155 -0.061108977 -0.060254414 -0.018876456 -0.036882795
-0.030019214 -0.068902686 -0.052750364 0.028952014 0.053009186 0.013192874 0.0083646905 -0.02963984
-0.004705813 0.08131599 0.051937036 0.041465674 0.032146767 -0.03471592 -0.0030771145 0.040090404
-0.036267947 -0.04006938 -0.0051363176 0.02121698 0.022537 0.020341408 0.006213355 0.0026200581
00000000: 8d77 37bc b6c4 a2bc 94a2 15bc b274 a2bd
00000010: 72c1 a1bd 00b5 7bbd ad59 38bd 8e20 56bd
00000020: 4302 51bd cab9 9bbc acac 48bc 8542 533c
00000030: c5e2 173d 26cf 663c 4d79 8e3c e4f0 c73c
00000040: 889e d8bb cce6 3bbc 9786 a83c 459e 12bd
00000050: 1868 a13c fe06 5b3d 0f6d 1d3c 371d 7b3b
00000060: 59ae 90bb e8fa c3bc abcd 513d b69d 94bc
00000070: 5b15 03bd 444c a9bd f9c2 81bb 8b72 933c
00000080: 95d8 90bc d498 1bbd 118f adbd 4993 533d
00000090: 3736 a13d 40f7 c53d 16c6 143d e8a0 12bd
000000a0: b221 91bc aa2b a53d 0268 9f3d ac32 2a3d
000000b0: 627e 0d38 7444 86bc ced5 c83d 7549 9b3d
000000c0: eec0 983b 10c6 123a b617 49bd e093 6abd
000000d0: 724c 15bc 7533 44bd 94fe b8bc cbea 11bc
000000e0: e1d7 89bd 3906 32bd f79a 89bd fcb6 48bd
000000f0: bfae d63b 831f 1b3c d1ba 493c 0ef7 513c
00000100: 35d7 dbbc 35d1 cdbc bf74 95bc 7f29 9cbc
00000110: e9f5 343c c37b 703c be39 563d 778a b13b
00000120: 525b 063a 710e 383d a93f 533a ee1b 2fbd
00000130: a6cb 32bd b214 27bd 6881 dfbc e04d e43c
00000140: f483 a6bc 8520 b8bc cf09 efbc 0aac b737
00000150: b704 b73c d987 9e3c 3e3f 3a3d 0b20 1f3d
00000160: faec f53c 89c0 383c 79ea 0b3c 0163 a73b
00000170: f050 ba3c 7ee9 953c 4f6a 993c 585a 7bbc
00000180: 57f3 4abc c1e9 0bbd 3e60 a53c c601 fe3c
00000190: 6c7d 36ba be63 d23c 6439 3abc 8cc1 b53c
000001a0: 2140 febc db07 113c 700b cbbc dda3 2abd
000001b0: 49a2 c83c a168 dfbb 3111 793c 2d03 50bc
000001c0: 130f d4bb 94d0 1abc 5f6a 313d f3f5 42bc
000001d0: 6b15 cfbc 3633 c2bc 7da4 bbbb e839 893c
000001e0: 8882 8d3b dc59 1d3c 1354 163d 41ca 273d
000001f0: 2988 ad3c 9029 bdbc ae55 89bc 75d1 9dbc
00000200: febd 9b3c e2ec d63c 2b9e 4bbd 34c6 53bd
00000210: 4381 26bd 0f40 ec3c 171f 3cbc 5590 15bd
00000220: 04de 8bbd 3661 1fbd 5208 29bd 2512 d9ba
00000230: 6be8 1b39 c80a 28bd a91a 0cbd 0616 acbc
00000240: 01d1 673d e2f3 d73c 7a72 fbbc dae6 35bd
00000250: f312 64bc 4793 573d 18cc 993c 61f2 0abd
00000260: 22af 2bbd 5961 90bc 55f4 a8bc 0eab 11bb
00000270: e6a6 533c 44ad 873c d875 7cbc af3b e5bb
00000280: 34e8 a53c f3b4 373d 787b 693d e2e8 203d
00000290: 00bd ddbb 7da2 3dbc 419d 9f3d 56e9 b23d
000002a0: 0910 a039 2a67 1f3d ce29 e9bc 855d 03bc
000002b0: d329 d03c 0bf9 753c b1cc 89bb cc91 e73b
000002c0: 6ad6 0ebd eaaa 6cbd bc17 22bd 1c77 a9bb
000002d0: af7f 973c 3744 2ebc e2e0 79bd a71e 2fbd
000002e0: 39a5 17bd a423 4cbc 2ec2 86ba 8e52 65bd
000002f0: 59d9 cabc 4ba3 abbc cd1f 283b e26c bbbc
00000300: ce10 fb3b b5bc f7bc 6f5f 9dba 8871 80bc
00000310: 9964 68bc 5dad 60bd 997c d63c 822a 1f3b
00000320: 7a1e 88bc e782 683c cf9c ac3b 2f74 5e3c
00000330: 977b 05bd 8ec8 d8bc 8108 4dbd bd93 a6ba
00000340: 86e1 a9b9 0658 0a3d 5337 dfbc eec4 c3bc
00000350: bf80 1a3c 75e3 e8bc b140 2dba 8321 8abb
00000360: eb7d 883c fd47 4bbd bc35 04bb d306 39bd
00000370: d3dd 273c e7d5 903c 7d20 96bb c1e2 3c3d
00000380: 5c36 a83c 3247 8abc 5c28 8fbd 63d5 2bbd
00000390: 684d 7abd 55cd 76bd cca2 9abc 6a12 17bd
000003a0: dbea f5bc da1c 8dbd c410 58bd c62c ed3c
000003b0: 2920 593d ed26 583c 0e0c 093c 40cf f2bc
000003c0: 3833 9abb ff88 a63d eebb 543d e9d7 293d
000003d0: 54ac 033d 4832 0ebd 6aa9 49bb d635 243d
000003e0: b38d 14bd ca1f 24bd 8e4e a8bb 3bcf ad3c
000003f0: 849f b83c 06a3 a63c 6699 cb3b 48b5 2b3b

model1.2.bias f4 [32]
-0.14402843 -0.16085987 -0.082482345 -0.1884809 -0.123775244 0.041200634 -0.12117266 -0.019685552
-0.03612598 -0.099031895 0.009722808 -0.09039748 -0.05590672 -0.016605359 -0.23113196 -0.15179944
-0.19574529 -0.0039768126 0.0016141625 -0.031876173 -0.024826005 -0.017540429 -0.042566206 -0.01745323
-0.015161141 -0.13462767 -0.018778171 0.01661747 -0.0977067 -0.07671872 -0.05148507 -0.15481925
00000000: 307c 13be 73b8 24be 81ec a8bd 2301 41be
00000010: e07d fdbd ffc1 283d 5f29 f8bd 9843 a1bc
00000020: d6f8 13bd 3cd1 cabd 6a4c 1f3c 5022 b9bd
00000030: 72fe 64bd f607 88bc dbad 6cbe 5071 1bbe
00000040: 7471 48be ec4f 82bb 4e92 d33a 9790 02bd
00000050: e85f cbbc f2b0 8fbc e759 2ebd 14fa 8ebc
00000060: 6f66 78bc d6db 09be aed4 99bc 5c21 883c
00000070: 731a c8bd b41e 9dbd 02e2 52bd f088 1ebe

model1.4.weight f4 [64, 32, 5, 5]
-0.032267667 0.028148375 0.012463271 0.05657913 0.04384594 -0.013997413 0.0073203305 0.03492653
0.046315137 -0.013600845 -0.021130102 0.022067834 0.022106787 0.010371528 0.02723656 -0.03273101
-0.04757991 -0.031368215 0.052951414 -0.012628227 -0.06463792 -0.003937371 -0.027123073 -0.0034751676
-0.0017450494 -0.013974735 -0.04484607 0.01620522 -0.007154149 -0.055533197 -0.035628743 -0.028763441
0.009882136 -0.034948774 -0.0185644 0.028125849 0.015119886 0.00648753 -0.029130712 0.016952015
0.030208016 0.016773969 0.03174372 -0.0048876004 0.021835586 0.009370416 -0.012133685 -0.022170119
-0.017453367 -0.037072636 -0.040310215 0.041468233 0.02326685 -0.0063590207 -0.011478795 0.041949887
0.03011995 -0.022516614 -0.023474874 -0.027546762 0.0350055 0.03316866 0.047435462 0.045900885
-0.006621593 0.05687871 0.02792232 0.033308882 0.0036469733 0.030633153 0.020597866 -0.01815594
0.004285499 0.001854537 -0.006849554 0.023739437 0.015331786 0.077656046 0.0143404445 -0.00030487086
0.014222038 0.0360348 0.029696211 -0.0155528765 0.018953416 0.016429847 0.06298683 0.033015575
-0.0025679846 0.008355643 0.012458836 -0.03461174 0.0022926496 -0.0037023698 0.008289298 0.06452025
0.0015824208 -0.019790534 -0.023113599 0.001206489 -0.03865611 0.009917165 -0.00023599867 -0.033744145
-0.00018656738 -0.03468317 0.016292216 -0.007291649 -0.019049069 -0.012646235 0.011003913 -0.028670587
-0.03541152 -0.0015456006 0.0015521093 0.013611381 -0.018644108 -0.031883873 -0.0014806632 0.015533548
-0.015392796 -0.005695699 -0.031539608 -0.00071270036 0.013081289 -0.035338104 -0.0060642455 0.0011166919
-0.057617445 -0.045075335 0.015101441 -0.05339305 -0.028784107 -0.03475394 -0.03767086 0.026284318
-0.06302202 -0.013315415 0.0070418417 0.013833718 -0.041876625 -0.02748831 -0.06415116 -0.055109918
0.008836211 0.010945745 -0.024592292 -0.02612948 -0.044109568 -0.06236465 0.0074713896 -0.014402238
0.017087214 0.015838264 -0.011189304 0.035073176 0.009009337 0.004172759 0.055984806 -0.00018124517
-0.040817257 0.0378793 0.04401701 0.02866149 -0.020618105 0.020193998 -0.04247533 -0.027476462
-0.038769234 0.022568554 -0.03454763 -0.014059698 0.026823578 0.017132543 0.0220001 -0.0020577481
0.022899933 -0.013575791 -0.025874786 -0.05999813 0.011483051 0.025579618 0.080852725 0.03995406
0.026780438 -0.022145515 -0.031055696 -0.01646513 -0.021749511 0.014248685 -0.0110045895 -0.047322467
-0.05058541 -0.03153571 -0.014130131 -0.019163609 -0.020388598 -0.04917933 0.002421661 -0.00080181623
-0.017535318 -0.0135842925 0.018255336 0.0057235127 0.032868814 0.028533401 -0.038398407 -0.015278179
-0.029530998 0.012072954 0.014115237 0.041512214 0.042711005 0.008075669 0.0072810003 0.058438506
0.029429592 -0.019415427 -0.016257063 0.011855453 0.04644509 0.029753165 0.0045808693 -0.045989364
0.02701042 0.023761757 -0.0050244844 0.030703126 0.049458504 0.017648553 -0.06670261 -0.025489125
-0.013936758 0.031554326 0.022656782 -0.024835682 -0.02563076 -0.0028933606 -0.029876942 -0.009351017
-0.048503365 -0.03733666 -0.033732552 0.016016161 -0.0097694695 -0.041859988 0.011877918 0.0007325919
0.002168458 -0.004654977 0.0023688893 0.00093681854 -0.0018522441 -0.033728838 0.025509875 0.004076739
00000000: 1a2b 04bd 6c97 e63c bf32 4c3c 85bf 673d
00000010: cd97 333d 6855 65bc 62df ef3b 1f0f 0f3d
00000020: f1b4 3d3d 14d6 5ebc 0919 adbc 9ac7 b43c
00000030: 4b19 b53c 57ed 293c 351f df3c f410 06bd
00000040: 27e3 42bd f57b 00bd 95e3 583d 9fe6 4ebc
00000050: e360 84bd 1005 81bb 3531 debc a3bf 63bb
00000060: 24ba e4ba 49f6 64bc 83b0 37bd cfc0 843c
00000070: 5a6d eabb c776 63bd 72ef 11bd 4fa1 ebbc
00000080: afe8 213c 7226 0fbd 5e14 98bc 2e68 e63c
00000090: 66b9 773c 5995 d43b 88a3 eebc f4de 8a3c
000000a0: cd76 f73c 9069 893c b405 023d 2a28 a0bb
000000b0: 8be0 b23c 6086 193c 5dcc 46bc 1c9e b5bc
000000c0: 5dfa 8ebc 7ad9 17bd 531c 25bd 98da 293d
000000d0: 1f9a be3c 555f d0bb 8e11 3cbc a5d3 2b3d
000000e0: 1dbe f63c c374 b8bc 614e c0bc bfa9 e1bc
000000f0: ed61 0f3d dcdb 073d b04b 423d 9102 3c3d
00000100: f3f9 d8bb a6f9 683d 59bd e43c e56e 083d
00000110: 0f02 6f3b 61f2 fa3c dbbc a83c c4bb 94bc
00000120: 5f6d 8c3b f013 f33a 3972 e0bb 3579 c23c
00000130: 2c32 7b3c 220a 9f3d 2ff4 6a3c 13d7 9fb9
00000140: 8d03 693c 3a99 133d 7845 f33c 7ed1 7ebc
00000150: 3244 9b3c e397 863c 3dff 803d 573b 073d
00000160: a24b 28bb 1be6 083c 2520 4c3c 0ac5 0dbd
00000170: 4740 163b 75a3 72bb d6cf 073c 3123 843d
00000180: 3b69 cf3a c21f a2bc bb58 bdbc 0e23 9e3a
00000190: df55 1ebd 9b7b 223c 6976 77b9 4d37 0abd
000001a0: 4da1 43b9 f10f 0ebd 4177 853c c9ee eebb
000001b0: cb0c 9cbc 2732 4fbc c249 343c 94de eabc
000001c0: ac0b 11bd c095 caba 2570 cb3a 4502 5f3c
000001d0: 87bb 98bc aa98 02bd d012 c2ba 6c80 7e3c
000001e0: 1132 7cbc fca2 babb ad2f 01bd 83d4 3aba
000001f0: e752 563c b0be 10bd 94b6 c6bb f65d 923a
00000200: 4500 6cbd eaa0 38bd 096c 773c acb2 5abd
00000210: a6cc ebbc 265a 0ebd c24c 1abd 3652 d73c
00000220: b011 81bd e628 5abc 40bf e63b d2a6 623c
00000230: d386 2bbd 2a2f e1bc af61 83bd f0ba 61bd
00000240: c1c5 103c c855 333c c675 c9bc 7e0d d6bc
00000250: 3cac 34bd 1372 7fbd 8fd2 f43b 5df7 6bbc
00000260: 7cfa 8b3c 3fbf 813c 5853 37bc e4a8 0f3d
00000270: e69b 133c a4bb 883b 5350 653d a10c 3eb9
00000280: ff2f 27bd 5327 1b3d 2e4b 343d 80cb ea3c
00000290: 4de7 a8bc e26d a53c 9dfa 2dbd 5116 e1bc
000002a0: 7dcc 1ebd b0e1 b83c d181 0dbd a65a 66bc
000002b0: 1fbd db3c 8c59 8c3c 8e39 b43c 49db 06bb
000002c0: a498 bb3c ff6c 5ebc 5cf7 d3bc 99c0 75bd
000002d0: 6823 3c3c 598c d13c 1d96 a53d dea6 233d
000002e0: a662 db3c 836a b5bc 8468 febc e1e1 86bc
000002f0: 082c b2bc 5173 693c 984c 34bc 34d5 41bd
00000300: a632 4fbd 972b 01bd 1182 67bc 00fd 9cbc
00000310: fd05 a7bc 4470 49bd bbb4 1e3b fa30 52ba
00000320: 3aa6 8fbc a790 5ebc 378c 953c 4e8c bb3b
00000330: 73a1 063d e1be e93c a647 1dbd 5451 7abc
00000340: feea f1bc a4cd 453c 9843 673c b608 2a3d
00000350: bcf1 2e3d d04f 043c 7595 ee3b 375d 6f3d
00000360: 5416 f13c 1a0d 9fbc 882d 85bc 603d 423c
00000370: 353d 3e3d e9bc f33c 1e1b 963b 585f 3cbd
00000380: f544 dd3c 04a8 c23c 6ea4 a4bb 1f85 fb3c
00000390: 0095 4a3d b393 903c 619b 88bd 92ce d0bc
000003a0: 0057 64bc 1c3f 013d b79a b93c 3374 cbbc
000003b0: 99f7 d1bc 899e 3dbb 7dc0 f4bc 0235 19bc
000003c0: 77ab 46bd 53ee 18bd 252b 0abd 5334 833c
000003d0: 2010 20bc 6175 2bbd 999b 423c 690b 403a
000003e0: b01c 0e3b c788 98bb 5e3f 1b3b d494 753a
000003f0: 00c7 f2ba 4027 0abd 16fa d03c 2a96 853b

model1.4.bias f4 [64]
-0.040118743 -0.009888148 -0.04878036 -0.032914378 -0.036509126 -0.007373757 -0.11291322 -0.00401057
-0.14510034 -0.03819768 -0.044804417 -0.0021247983 -0.042183314 0.026246442 -0.071313746 -0.10170515
-0.05158938 -0.01872506 -0.012514802 -0.04635624 0.015467497 -0.010277005 -0.0925328 -0.09506684
-0.057452332 -0.0528551 -0.036637574 -0.09295446 -0.105322175 -0.009501184 0.0024232138 -0.034575302
-0.008298854 -0.03463438 -0.07242082 -0.047737684 -0.016641717 0.008177107 -0.07627998 -0.01538548
-0.019585742 -0.12905127 -0.09572788 -0.08481215 -0.08708482 -0.03671535 -0.031126658 -0.047281593
-0.06264605 -0.048615333 0.0031601593 -0.09403199 -0.009035492 -0.10224881 -0.09422805 -0.054294825
-0.065263376 -0.09436466 -0.053938363 -0.003731503 -0.0518692 -0.105314545 -0.019029457 -0.07378584
00000000: 8d53 24bd e601 22bc eacd 47bd 3ad1 06bd
00000010: 988a 15bd 8f9f f1bb 0c3f e7bd 196b 83bb
00000020: 2f95 14be 2c75 1cbd d684 37bd 3340 0bbb
00000030: 69c8 2cbd c702 d73c f10c 92bd ca4a d0bd
00000040: 634f 53bd 4c65 99bc e20a 4dbc 0ae0 3dbd
00000050: 626b 7d3c e260 28bc d681 bdbd 67b2 c2bd
00000060: 2353 6bbd 977e 58bd 4811 16bd e85e bebd
00000070: 27b3 d7bd dbaa 1bbc c8ce 1e3b d59e 0dbd
00000080: ebf7 07bc c8dc 0dbd 5e51 94bd 9788 43bd
00000090: 3654 88bc 46f9 053c ae38 9cbd 6113 7cbc
000000a0: 4772 a0bc 0426 04be fb0c c4bd feb1 adbd
000000b0: 8759 b2bd d662 16bd 55fd febc 58aa 41bd
000000c0: 924c 80bd df20 47bd ad1a 4f3b d893 c0bd
000000d0: 9a09 14bc d367 d1bd a3fa c0bd 4064 5ebd
000000e0: cea8 85bd 4242 c1bd 79ee 5cbd 3b8c 74bb
000000f0: cc74 54bd 27af d7bd aae3 9bbc 081d 97bd

model1.7.weight f4 [64, 1024]
-0.008214736 -0.008875218 0.04610072 0.017472796 -0.019124618 0.022232652 0.021561677 -0.019889722
0.00044257057 -0.04560838 0.0057419552 0.0060816174 -0.002223275 -0.010959264 -0.0015940977 -0.035588484
0.01231234 0.018810203 0.0047542667 0.0023391224 0.013136287 0.031979103 -0.014066136 0.042179696
0.04237692 0.024045222 0.019584658 0.0147760315 0.014377962 0.0120081445 0.00020343855 0.014466355
0.009133795 0.0151925925 -0.010242741 0.018650243 0.0032384247 -0.033092503 -0.0269796 -0.02773551
0.018787213 -0.011981553 -0.00010421461 -0.0054911003 0.011088075 0.02012926 0.0016752378 -0.005353027
-7.778963e-05 0.033509113 -0.024490805 0.0045624976 0.02128606 0.032977704 -0.0023363803 -0.014448862
-0.026965998 0.024072116 0.0034886952 0.0003352339 -0.006012616 0.013056249 0.04143726 -0.006542337
0.051193755 -0.01647721 -0.021348018 -0.03525955 0.015028088 0.032279506 -0.0047733155 -0.018229278
-0.025680061 -0.022951195 -0.045285255 0.015726969 -0.021559946 -0.030136159 0.0116101615 0.026071696
0.00016824111 0.023458946 0.029838074 0.012053258 -0.0003080736 0.0007387443 -0.0018887209 -0.019383466
-0.0011865998 0.0060242633 -0.026526917 0.025921514 0.04562818 -0.020283973 0.01759743 -0.0148372175
0.008416099 0.023876376 0.011882209 -0.008640607 -0.00033195916 -0.034207985 -0.015843412 -0.009036938
-0.03483472 0.016958414 0.023387339 0.02196025 -0.028401615 0.012336913 0.028940657 -0.031051353
-0.010718908 0.0155479 0.019288218 -0.02159964 -0.002721115 -0.0065921424 -0.0031908434 -0.005092505
0.025341574 0.051990785 -0.016444227 0.007855267 0.007007282 -0.008843267 -0.04904241 -0.004657976
-0.020659113 0.031535964 0.013810272 -0.0050900946 -0.01620831 0.016826661 0.016569285 -0.022089422
0.009918587 -0.032715328 -0.013469106 -0.032352928 -0.005734054 -0.01053812 -0.015033858 -0.00453352
0.013970877 0.0048483824 -0.0053955954 0.038269818 0.01654257 -0.015411015 -0.020145705 -0.0025563142
-0.01143532 0.015148714 0.020427994 0.0085401395 0.010516304 0.005327997 0.033712313 0.055226732
0.01562867 -0.02668025 0.027483962 0.021395894 -0.008800795 -0.042052556 0.0005600405 0.029406112
-0.0323437 -0.028537387 0.01104268 -0.021130586 0.024002561 0.013936083 0.021526316 -0.021183848
-0.004354852 0.032807466 0.018099597 -0.008970028 -0.038018197 0.024133807 -0.0011296078 -0.03614535
-0.03290176 -0.030438567 -0.020520676 0.019661626 0.01585582 -0.0338963 -0.027966404 -0.016947126
0.028087784 0.031509355 0.031045387 -0.021610271 0.040381275 -0.036590554 -0.021542702 -0.009013568
-0.019556193 0.038300026 0.003700873 0.013702608 0.003822652 0.043680985 0.027824704 -0.0074952175
0.01829055 -0.009035944 -0.01813395 0.030907469 0.030015837 -0.0082312 -0.012775386 0.0070465542
0.045740835 -0.009570828 -0.022547225 0.002815489 0.021255847 -0.0094222175 -0.019061567 0.009270872
-0.028356161 -0.032600865 0.010696222 0.034647897 0.008473604 0.00078537856 0.027776599 0.0139694
-0.0032401523 -0.025207294 -0.031959403 0.03135475 -0.021793317 -0.019320888 0.01957807 0.018402217
-0.012264879 0.0127175655 -0.00049296103 -0.022489646 -0.0018706294 0.022891572 0.009062177 -0.008070317
-0.02604302 0.0049428595 -0.025584366 -0.008179981 0.010930543 0.009307819 0.002837307 -0.016693965
00000000: 1a97 06bc 5d69 11bc 1cd4 3c3d 1c23 8f3c
00000010: 3bab 9cbc 4021 b63c 1da2 b03c c5ef a2bc
00000020: d108 e839 dacf 3abd 0327 bc3b 4e48 c73b
00000030: 5db4 11bb 7c8e 33bc 0bf1 d0ba 3bc5 11bd
00000040: b2b9 493c db17 9a3c aec9 9b3b f64b 193b
00000050: 9539 573c 85fc 023d a775 66bc 9ec4 2c3d
00000060: 6c93 2d3d 7cfa c43c 0170 a03c 2b17 723c
00000070: 8b91 6b3c cfbd 443c 1f52 5539 4a04 6d3c
00000080: eaa5 153c 5aea 783c 2bd1 27bc 65c8 983c
00000090: c03b 543b 018c 07bd 5204 ddbc 9535 e3bc
000000a0: a4e7 993c 474e 44bc cb8d dab8 b0ee b3bb
000000b0: c2aa 353c 1ee6 a43c a793 db3a 7268 afbb
000000c0: fd22 a3b8 da40 093d f1a0 c8bc 0181 953b
000000d0: 1a60 ae3c a113 073d f51d 19bb ebba 6cbc
000000e0: cce7 dcbc e332 c53c 98a2 643b 55c2 af39
000000f0: 7b05 c5bb e1e9 553c 1eba 293d 1a61 d6bb
00000100: 8bb0 513d 37fb 86bc 0ae2 aebc 516c 10bd
00000110: 5f38 763c 8437 043d 7969 9cbb 9155 95bc
00000120: fe5e d2bc 2504 bcbc 087d 39bd d8d5 803c
00000130: 7c9e b0bc 1be0 f6bc 8c38 3e3c 4f94 d53c
00000140: e169 3039 fa2c c03c fa6e f43c 077b 453c
00000150: f084 a1b9 4aa8 413a f58e f7ba 13ca 9ebc
00000160: af87 9bba 2f67 c53b fa4e d9bc 5b59 d43c
00000170: 9de4 3a3d 932a a6bc 7c28 903c cd17 73bc
00000180: ade3 093c 6498 c33c 99ad 423c 5591 0dbc
00000190: ce0a aeb9 ac1d 0cbd 0bca 81bc aa0f 14bc
000001a0: daae 0ebd 5fec 8a3c ce96 bf3c fbe5 b33c
000001b0: 81aa e8bc c320 4a3c f514 ed3c 685f febc
000001c0: 5c9e 2fbc 9fbc 7e3c 5302 9e3c baf1 b0bc
000001d0: bc54 32bb e602 d8bb 781d 51bb 07df a6bb
000001e0: 2299 cf3c 4af4 543d 0bb6 86bc 61b3 003c
000001f0: 589d e53b 5ae3 10bc b2e0 48bd efa1 98bb
00000200: 4d3d a9bc db2b 013d 7b44 623c cfca a6bb
00000210: 4ac7 84bc 11d8 893c 4fbc 873c e0f4 b4bc
00000220: 9281 223c 8200 06bd 86ad 5cbc 8184 04bd
00000230: bbe4 bbbb 14a8 2cbc 9250 76bc ec8d 94bb
00000240: 1be6 643c 2edf 9e3b 89cd b0bb d0c0 1c3d
00000250: 4984 873c 7b7e 7cbc 9b08 a5bc d687 27bb
00000260: 355b 3bbc 5032 783c 9c58 a73c f1eb 0b3c
00000270: 934c 2c3c 7a96 ae3b ec15 0a3d 6d35 623d
00000280: b207 803c 8a90 dabc 0c26 e13c 7146 af3c
00000290: 3631 10bc 4d3f 2cbd afcf 123a 16e5 f03c
000002a0: d47a 04bd 3dc7 e9bc 5bec 343c 0d1a adbc
000002b0: 05a1 c43c 2b54 643c f557 b03c c089 adbc
000002c0: 25b3 8ebb 1f61 063d 9b45 943c 06f7 12bc
000002d0: f8b8 1bbd 43b4 c53c 590f 94ba 260d 14bd
000002e0: ffc3 06bd 4d5a f9bc fa1a a8bc 6b11 a13c
000002f0: 11e4 813c d9d6 0abd cd19 e5bc b3d4 8abc
00000300: 5a18 e63c f40f 013d e552 fe3c 0608 b1bc
00000310: d666 253d fadf 15bd 527a b0bc a5ad 13bc
00000320: 4f34 a0bc 7de0 1c3d 598a 723b e780 603c
00000330: 7585 7a3b d5ea 323d a2f0 e33c 719a f5bb
00000340: 10d6 953c 7f0b 14bc a68d 94bc a931 fd3c
00000350: c6e3 f53c 28dc 06bc da4f 51bc c8e6 e63b
00000360: be5a 3b3d f6ce 1cbc f5b4 b8bc 1184 383b
00000370: be20 ae3c a55f 1abc 0127 9cbc dbe4 173c
00000380: 2e4b e8bc 7c88 05bd 353f 2f3c f4ea 0d3d
00000390: dfd4 0a3c dde1 4d3a c08b e33c e9df 643c
000003a0: bc58 54bb 877f cebc dde7 02bd d76d 003d
000003b0: e687 b2bc d746 9ebc 3062 a03c 3fc0 963c
000003c0: a2f2 48bc 565d 503c 0e3a 01ba 353c b8bc
000003d0: e82f f5ba 1b87 bb3c 8679 143c 5d39 04bc
000003e0: 2c58 d5bc b6f7 a13b 4e96 d1bc 5405 06bc
000003f0: 0516 333c d37f 183c 1df2 393b c8c1 88bc

model1.7.bias f4 [64]
0.032878578 0.009827152 0.034277666 -0.010425369 0.0074110255 0.044480685 -0.039520454 -0.022018582
0.0031995089 0.031758927 0.018058259 0.0062452513 0.003941255 0.050779507 0.008179127 0.010593675
0.008825342 -0.036968067 0.08121152 0.03567267 0.050018772 0.0024981382 0.05482358 -0.04438011
-0.05585919 -0.037109923 0.007815564 0.0050071916 0.028260706 9.60059e-05 0.060318705 -0.006014538
-0.06875577 -0.044160254 -0.04065103 0.020567594 0.026520945 0.04496187 0.004962856 0.04945481
0.05077825 -0.020955086 -0.024828333 0.011246237 0.038542796 -0.00923124 0.032018982 -0.042696398
-0.00639536 -0.047026712 -0.08343799 -0.07981883 -0.027519466 0.060551573 0.020276176 -0.0012773802
0.017467301 0.023900533 -0.0713585 -0.013890475 0.048874967 0.0035094284 0.016762175 -0.013665015
00000000: b0ab 063d 1002 213c bd66 0c3d 2bcf 2abc
00000010: 30d8 f23b 6131 363d 33e0 21bd 5060 b4bc
00000020: daae 513b a615 023d eaee 933c f7a4 cc3b
00000030: a525 813b 2cfe 4f3d bf01 063c 1891 2d3c
00000040: 2b98 103c d46b 17bd 3a52 a63d 811d 123d
00000050: 7ce0 4c3d ceb7 233b b18e 603d ebc7 35bd
00000060: 9bcc 64bd 9300 18bd da0c 003c 5e13 a43b
00000070: ff82 e73c c656 c938 bf10 773d 9a15 c5bb
00000080: d3cf 8cbd 62e1 34bd b281 26bd 5f7d a83c
00000090: 7442 d93c f029 383d 749f a23b 2091 4a3d
000000a0: dbfc 4f3d 00aa abbc ca64 cbbc 2342 383c
000000b0: 0ddf 1d3d a03e 17bc 5626 033d 6be2 2ebd
000000c0: 2b90 d1bb 159f 40bd 89e1 aabd 0e78 a3bd
000000d0: 8170 e1bc ed04 783d 391a a63c c46d a7ba
000000e0: 9617 8f3c 0dcb c33c 6824 92bd e094 63bc
000000f0: 1e31 483d 70fe 653b d450 893c 3ae3 5fbc

model1.8.weight f4 [10, 64]
-0.091141246 -0.09768552 0.039999414 0.118814364 -0.12158375 -0.06146298 0.044852078 -0.093749195
0.14872189 0.09405863 0.060073014 0.008309236 0.05828371 0.14668277 0.022988422 -0.15591641
-0.11115195 0.07923938 -0.09016659 -0.120018825 -0.2440007 0.19241838 0.12918149 0.10907558
0.211845 0.13660455 -0.22769366 0.18881649 -0.09567525 0.19683047 -0.14577655 -0.22604503
0.14224708 0.08656329 -0.16446072 -0.19977182 -0.22908196 0.09670744 -0.07161834 0.016418573
-0.14857806 -0.32079816 0.036214586 0.15090445 -0.0594037 0.18896589 -0.18299967 0.11637379
0.23187341 0.13037162 0.2680021 0.23947689 0.0096031185 -0.052867893 0.22482388 0.0136957
-0.24093261 0.2518287 0.08701549 0.051246066 -0.11158216 -0.07511052 -0.2398979 -0.05577832
0.06291205 -0.28400758 -0.1323564 0.10089143 -0.2828279 -0.096952885 0.033723857 -0.19284394
-0.037598252 -0.02274758 0.14444241 0.22654435 -0.055242665 -0.17502499 0.111180626 -0.08076657
0.25138932 0.02021785 0.30019867 0.037055515 -0.20681715 0.29141134 0.039137874 -0.08176956
0.09266356 -0.13250989 0.23026825 -0.19310448 -0.026784403 0.2909983 0.102562375 0.22332327
0.098091714 -0.039488163 -0.17132838 -0.21938638 0.15487085 -0.11697491 -0.064816676 0.2275811
-0.12194326 0.13367473 0.21958861 -0.20906702 -0.26374272 0.12380121 0.14056516 0.28042322
-0.114079125 -0.032654367 -0.30885935 -0.35809556 -0.27526826 0.004216152 -0.13736212 -0.051222023
0.02408304 -0.16537568 0.26909903 -0.28055996 -0.12345026 0.24371454 -0.266324 0.02783902
-0.20631447 -0.18304197 -0.15169342 -0.014823994 0.11029328 -0.122613646 0.07660981 0.23050633
0.16653405 0.13445824 -0.30586722 -0.06395517 0.13284567 0.14073682 0.24724151 0.015820464
-0.14656188 -0.18393779 -0.24417965 0.17922507 0.20035405 0.013565748 0.041919958 0.09148991
-0.03373121 -0.04760467 -0.19057068 0.24232887 0.22140332 -0.0327224 -0.037063677 0.05348928
0.015272202 -0.11967447 0.1652945 -0.16084954 -0.20152496 -0.1824042 -0.06994958 0.16667768
-0.06061738 -0.16237426 -0.20253961 -0.24001287 0.13394131 -0.18132298 -0.030269945 0.106115244
0.096050285 0.007684512 -0.10861537 0.3423507 0.04303979 -0.17470922 -0.015800953 0.24206488
0.15625633 0.07374398 -0.0978829 -0.11308364 0.13620095 -0.20504025 -0.09883899 0.09094997
0.030020075 0.19018826 -0.05983114 -0.16129036 0.19146739 -0.024982115 0.044078268 0.12165717
0.037610047 -0.043990966 0.16907273 0.15164945 -0.016938742 0.15101454 0.0625122 0.21095966
-0.121510215 0.10788494 0.14249924 0.091966316 0.28825027 0.13891274 -0.016072012 -0.008973759
-0.10928454 0.030108957 0.27163073 0.062917046 0.042580985 -0.057610143 0.06225362 -0.007944341
0.010672177 0.029608581 0.16514935 0.109013654 -0.11737652 0.094399944 -0.050197504 -0.028699739
0.0028843551 -0.008875125 -0.017569868 -0.09533939 0.076122314 0.112464525 -0.05170781 0.15481417
-0.17412466 0.10799714 0.17230377 0.15036397 0.09754059 0.07900084 0.11578915 0.04840052
0.18182059 -0.09005759 -0.00030177674 0.11563626 0.023908058 0.2693259 0.14316411 -0.19031891
00000000: 43a8 babd 590f c8bd 6dd6 233d f254 f33d
00000010: e700 f9bd 9bc0 7bbd d0b6 373d 94ff bfbd
00000020: 8d4a 183e d0a1 c03d 1f0f 763d 7623 083c
00000030: e6ba 6e3d 0234 163e 3752 bc3c 8da8 1fbe
00000040: a2a3 e3bd 4248 a23d 43a9 b8bd 6ecc f5bd
00000050: 52db 79be 5309 453e 2748 043e 0563 df3d
00000060: e5ed 583e 10e2 0b3e 8728 69be 1c59 413e
00000070: 63f1 c3bd ed8d 493e 7346 15be 5978 67be
00000080: 38a9 113e 1848 b13d 6468 28be fc90 4cbe
00000090: 7694 6abe 8d0e c63d a3ac 92bd 3e80 863c
000000a0: d924 18be a83f a4be bf55 143d b286 1a3e
000000b0: 4b51 73bd 4680 413e 4464 3bbe 6255 ee3d
000000c0: 3970 6d3e 2380 053e 9237 893e 6e39 753e
000000d0: 6656 1d3c 018c 58bd 3b38 663e ee63 603c
000000e0: 0ab7 76be b1ef 803e 2d35 b23d 65e7 513d
000000f0: 3085 e4bd 8bd3 99bd cca7 75be cf77 64bd
00000100: 08d8 803d 7169 91be 7088 07be 2ba0 ce3d
00000110: d2ce 90be 3c8f c6bd 0722 0a3d e278 45be
00000120: a000 1abd 2259 babc b6e8 133e 3efb 673e
00000130: 2246 62bd c039 33be abb2 e33d f268 a5bd
00000140: 1ab6 803e e89f a53c a4b3 993e 86c7 173d
00000150: e0c7 53be de33 953e 094f 203d cd76 a7bd
00000160: 64c6 bd3d acb0 07be 71cb 6b3e 2ebd 45be
00000170: f76a dbbc bbfd 943e 390c d23d dbae 643e
00000180: 4fe4 c83d 57be 21bd b570 2fbe d3a6 60be
00000190: 7796 1e3e 8b90 efbd 9bbe 84bd 050b 693e
000001a0: 63bd f9bd 07e2 083e d6db 603e aa15 56be
000001b0: 4909 87be 7d8b fd3d 50f0 0f3e a293 8f3e
000001c0: 51a2 e9bd 96c0 05bd d022 9ebe 4d58 b7be
000001d0: f6ef 8cbe a527 8a3b a8a8 0cbe 2fce 51bd
000001e0: cc49 c53c 3e58 29be 59c7 893e 8ea5 8fbe
000001f0: 7dd3 fcbd 4e90 793e 9f5b 88be a80e e43c
00000200: 1a44 53be 5b6f 3bbe 8555 1bbe 56e0 72bc
00000210: 71e1 e13d dd1c fbbd 9be5 9c3d da09 6c3e
00000220: e787 2a3e 6caf 093e a19a 9cbe eefa 82bd
00000230: b208 083e 501d 103e e12c 7d3e eb99 813c
00000240: 5114 16be 305a 3cbe 3b0a 7abe c786 373e
00000250: 9d29 4d3e df42 5e3c 43b4 2b3d 105f bb3d
00000260: bd29 0abd 1dfd 42bd f624 43be 0f25 783e
00000270: 8db7 623e ec07 06bd 15d0 17bd 9317 5b3d
00000280: 4238 7a3c e317 f5bd f642 293e beb5 24be
00000290: 8f5c 4ebe 2bc8 3abe ba41 8fbd 8ead 2a3e
000002a0: ee49 78bd 7045 26be 8b66 4fbe efc5 75be
000002b0: e927 093e bbac 39be adf8 f7bc f352 d93d
000002c0: 03b6 c43d 5cce fb3b bc71 debd 9748 af3e
000002d0: 7e4a 303d f9e6 32be 0071 81bc dbdf 773e
000002e0: a901 203e 1507 973d d476 c8bd 6598 e7bd
000002f0: 4378 0b3e 12f6 51be 196c cabd fa43 ba3d
00000300: a9ec f53c b6c0 423e 7f11 75bd 4d29 25be
00000310: 0710 443e 4ba7 ccbc 6a8b 343d 6527 f93d
00000320: fe0c 1a3d df2f 34bd 6721 2d3e fe49 1b3e
00000330: 1ec3 8abc 8ea3 1a3e 6506 803d cf05 583e
00000340: 59da f8bd c8f2 dc3d 52eb 113e d658 bc3d
00000350: 8a95 933e 243f 0e3e 74a9 83bc ac06 13bc
00000360: 93d0 dfbd 0fa7 f63c 2f13 8b3e a7da 803d
00000370: 6669 2e3d 9df8 6bbd a7fd 7e3d fb28 02bc
00000380: 5bda 2e3c b28d f23c e91c 293e 8d42 df3d
00000390: 1a63 f0bd c254 c13d e69b 4dbd b71b ebbc
000003a0: 7307 3d3b f968 11bc afee 8fbc 4c41 c3bd
000003b0: 04e6 9b3d cd53 e63d 92cb 53bd 9b87 1e3e
000003c0: bc4d 32be 9b2d dd3d 6670 303e 03f9 193e
000003d0: 5cc3 c73d 31cb a13d dd22 ed3d a03f 463d
000003e0: 2d2f 3a3e 1d70 b8bd ca37 9eb9 b4d2 ec3d
000003f0: d5da c33c 16e5 893e 9d99 123e f6e2 42be

model1.8.bias f4 [10]
-0.09513926 -0.068136744 -0.02006341 0.09944674 0.13019861 -0.11520279 0.09245145 -0.108458415
-0.0039811884 0.05387377
00000000: 5fd8 c2bd 478b 8bbd 055c a4bc bbaa cb3d
00000010: c952 053e 71ef ebbd 3057 bd3d 721f debd
00000020: a174 82bb beaa 5c3d
