PyTorch/nn/models/cifar10_26.pth (torch_old, 584123 bytes, 10 tensors)

model1.0.weight f4 [32, 3, 5, 5]
0	0xbe0c4a0d	-0.13700123
1	0xbe5ace2d	-0.21367712
2	0xbdfa5e59	-0.12225027
3	0xbcf795a0	-0.030222714
4	0xbc69e932	-0.0142767895
5	0xbd2cb789	-0.04216722
6	0xbe06955a	-0.1314291
7	0xbd8db06a	-0.06918414
8	0x3cbe51f8	0.023232445
9	0x3dc01b3f	0.09380197
10	0x3e32d07f	0.17462347
11	0x3ea181ad	0.31544247
12	0x3e0d2a30	0.13785625
13	0x3c664e42	0.014056744
14	0xbd8f85ea	-0.07007964
15	0xbd1e41ee	-0.038637094
16	0xbdc79c72	-0.097466365
17	0x3e137316	0.1439937
18	0xbc8ba6e8	-0.01704736
19	0x3d49f1bd	0.049302805
20	0xbca3f0f1	-0.02001235
21	0xbe436b8b	-0.19083993
22	0x3bb3a6f7	0.0054825502
23	0xbe167dc9	-0.1469642
24	0x3d34eced	0.044171263
25	0xbde78c2a	-0.11306031
26	0xbdf21747	-0.11820846
27	0xbdb777f8	-0.08958429
28	0x3d5b7352	0.053576775
29	0xbcc0228b	-0.023453971
30	0x3e1f478c	0.15554637
31	0x3e2ce675	0.16884787
32	0x3e0c76cb	0.13717191
33	0x3c9abbed	0.018888438
34	0x3da6b677	0.08140271
35	0x3e5f2984	0.2179318
36	0x3ed7db69	0.42159584
37	0x3e167575	0.14693244
38	0x3de911b1	0.113803275
39	0x3e28d4db	0.16487448
40	0x3d866f23	0.065641664
41	0x3c6cadd4	0.014445741
42	0x3e753fb6	0.23950085
43	0x3e0f7254	0.14008456
44	0x3d3c01e8	0.045900255
45	0x3e18107b	0.14850037
46	0xbb8659e0	-0.0041000694
47	0x3dd90048	0.10595757
48	0x3d83c2b9	0.06433625
49	0x3d454ebf	0.0481708
50	0xbe63ca2a	-0.22245088
51	0xbe770ac3	-0.24125199
52	0xbe0496b1	-0.12948109
53	0xbd564dd6	-0.052320324
54	0xbd1570c9	-0.036484513
55	0xbd9b3f5f	-0.075804465
56	0xbe2c8668	-0.16848147
57	0xbe5a2d01	-0.2130623
58	0xbe39256e	-0.18080685
59	0xbdb00de1	-0.08596397
60	0xbdd8f797	-0.10594099
61	0x3e48e5de	0.19618937
62	0xbe00cd33	-0.12578277
63	0xbdbcf755	-0.09226862
64	0xbd31300b	-0.043258708
65	0xbc950f89	-0.018195884
66	0xbe3f45f3	-0.18679027
67	0xbdf924c3	-0.12165215
68	0x3ccf0b6e	0.025274005
69	0xbe328e66	-0.17437133
70	0x3d2a8f88	0.04164079
71	0xbe261821	-0.16220142
72	0xbcc1e165	-0.023667047
73	0xbde41dcd	-0.111384965
74	0x3b863b77	0.004096444
75	0x3daca5ec	0.084300846
76	0xbe5cb7f6	-0.2155455
77	0xbd351832	-0.044212528
78	0x3eafce2c	0.34336984
79	0xbd98479d	-0.07435534
80	0x3e7e75cb	0.24849622
81	0xbdc0aa13	-0.09407439
82	0xbef5e4d1	-0.48026136
83	0xbd9f9e1b	-0.07793828
84	0x3e95a568	0.29227757
85	0xbd863601	-0.06553269
86	0x3e151eba	0.14562503
87	0xbe649a11	-0.22324397
88	0xbf048334	-0.517627
89	0xbdf69abc	-0.12041232
90	0xbe82e0f5	-0.25562254
91	0x3c33f584	0.010983828
92	0x3e9675b2	0.2938667
93	0x3d0dcfe4	0.034622088
94	0xbe1f1550	-0.15535474
95	0xbd05bb69	-0.03264943
96	0xbd8b4ce0	-0.06801772
97	0xbd866407	-0.065620475
98	0xbd0d13d8	-0.034442753
99	0xbcdf22ff	-0.027238367
100	0xbccf1cc8	-0.025282279
101	0xbe68a08f	-0.22717498
102	0x3e270227	0.16309415
103	0x3ed33fcc	0.4125961
104	0xbd6718c0	-0.056420088
105	0x3e7d3976	0.24728951
106	0xbd0fddfd	-0.035123814
107	0xbeacf66f	-0.33781764
108	0xbd5899e4	-0.052881137
109	0x3e8b4d16	0.2720725
110	0xbc5cffd2	-0.013488727
111	0x3eaabec0	0.33348656
112	0x3c7bd19a	0.015369797
113	0xbebc4a40	-0.36775398
114	0xbc46137d	-0.012089607
115	0xbdcf24c0	-0.101144314
116	0x3cf7bda5	0.030241797
117	0x3eb9094d	0.36139908
118	0x3cf1d616	0.02952103
119	0xbe5869bb	-0.21134083
120	0x3c97aea0	0.018515885
121	0xbd1fc456	-0.0390056
122	0x3dc56969	0.09639246
123	0x3d711a78	0.058863133
124	0xbd5a75ea	-0.053335108
125	0xbe05db35	-0.13071902
126	0xbe259980	-0.16171837
127	0x3c5fcf69	0.01366029
128	0x3eae9058	0.340945
129	0x3d13df0c	0.036101386
130	0x3e802557	0.25028488
131	0xbd18a959	-0.037270878
132	0xbeb5140f	-0.35366866
133	0x3d9aca11	0.07558072
134	0x3e81443f	0.2524738
135	0xbd42b7d3	-0.04753859
136	0x3ec3f633	0.38273773
137	0xbdcd2bc2	-0.10018112
138	0xbed6a097	-0.41919395
139	0x3d0183e0	0.031619906
140	0xbea38d7f	-0.3194389
141	0x3c418492	0.011811392
142	0x3ec1514c	0.37757337
143	0x3d8120fc	0.063051194
144	0xbe3b5ed0	-0.18297887
145	0x3d5e88c8	0.054329664
146	0xbdef6bbf	-0.11690473
147	0x3ddf7a70	0.10912025
148	0x3df4d793	0.1195518
149	0xbd91a6ff	-0.0711193
150	0xbe6d76e6	-0.23189887
151	0x3ca3e276	0.020005446
152	0x3e64e3da	0.22352543
153	0xbe20d6a1	-0.15706874
154	0x3d818af4	0.06325331
155	0xbe444f16	-0.19170794
156	0x3e403c13	0.18772916
157	0x3e878645	0.26469627
158	0xbece8c56	-0.40341443
159	0x3dfaedcb	0.12252387
160	0xbe9c938f	-0.30581328
161	0x3ebed764	0.37273705
162	0x3e09fd01	0.1347542
163	0xbee358cb	-0.4440368
164	0x3ea82aee	0.32845253
165	0xbe461a75	-0.1934603
166	0x3e0cec4d	0.13762017
167	0xbd9af907	-0.075670294
168	0xbe87b58f	-0.26505706
169	0x3c8828bb	0.016620984
170	0xbcd0e301	-0.025498869
171	0x3e3ebe06	0.18627176
172	0xbd0e1153	-0.03468449
173	0xbe2049c7	-0.15653144
174	0x3d2ee595	0.042699415
175	0xbe0b48fb	-0.13602059
176	0x3e37cc53	0.17949037
177	0x3e18966d	0.14901133
178	0xbe467d36	-0.19383702
179	0x3d5ead7c	0.054364666
180	0xbe981b7a	-0.29708463
181	0x3eada875	0.33917585
182	0x3e96497c	0.2935294
183	0xbea053ee	-0.31314033
184	0x3e83d88e	0.25751156
185	0xbe077512	-0.13228253
186	0x3ed42811	0.41436818
187	0x3dad0727	0.0844863
188	0xbecf2249	-0.40455845
189	0x3eacf13d	0.337778
190	0xbeadc441	-0.33938792
191	0x3e1b030e	0.15137884
192	0x3d5bb9ef	0.053644117
193	0xbe98afc9	-0.29821613
194	0x3e0a189d	0.13485952
195	0xbe142785	-0.144682
196	0x3eab2ec7	0.33434126
197	0x3d3b5c33	0.045742225
198	0xbd6a23a4	-0.057162896
199	0x3e33ef89	0.17571844
200	0xbe19c734	-0.15017396
201	0xbd4582e8	-0.048220545
202	0x3da58b2d	0.08083186
203	0xbe9a28a3	-0.30109128
204	0x3e4ccc7f	0.19999884
205	0xbe7925cb	-0.24330823
206	0x3e291f88	0.16515934
207	0x3e22a8a6	0.15884647
208	0xbed20bb4	-0.41024554
209	0x3e65975a	0.22421017
210	0xbe49d102	-0.19708636
211	0x3e945696	0.2897231
212	0x3abae5fa	0.0014259212
213	0xbec9da38	-0.394243
214	0x3e882fe9	0.26599053
215	0xbe9e9d31	-0.30979303
216	0x3db5857d	0.088633515
217	0xbdf59fe4	-0.11993387
218	0xbe4732ae	-0.19452927
219	0x3e3d5539	0.18489541
220	0xbe1c46d6	-0.15261397
221	0x3e902eb5	0.28160635
222	0xbccc01d6	-0.02490322
223	0xbe542da4	-0.20720536
224	0x3e727360	0.23676825
225	0xbe10e906	-0.14151391
226	0xbe43eca2	-0.19133237
227	0x3d3d21a2	0.046174653
228	0x3cb1302f	0.021629421
229	0xbde803ef	-0.11328875
230	0xbe897d2c	-0.2685331
231	0xbd73f446	-0.05955913
232	0x3e275cdf	0.16344021
233	0xbe606620	-0.21913958
234	0xbde37834	-0.11106911
235	0xbd56e964	-0.052468672
236	0x3d9f6d1a	0.07784481
237	0x3e2edfe0	0.17077589
238	0xbe1eb7b2	-0.15499762
239	0x3dc9bf75	0.09850971
240	0x3debfed3	0.11523213
241	0x3d715d68	0.05892697
242	0x3d97ba92	0.07408632
243	0xbdebc7a0	-0.11512685
244	0x3e7a0d66	0.24419174
245	0xbb80fc15	-0.0039363005
246	0x3e1a9c8a	0.15098777
247	0xbded5f21	-0.1159041
248	0x3d94a4cf	0.07257997
249	0xbd0826cb	-0.03324012
250	0xbd2f5921	-0.04280961
251	0x3e0fae3d	0.1403131
252	0x3e1366d2	0.14394692
253	0x3c9302ca	0.017945666
254	0x3e11901e	0.14215133
255	0xbe11b082	-0.14227489

model1.0.bias f4 [32]
0	0x3c8d456c	0.017245017
1	0x3e0e7077	0.1391009
2	0xbe379c01	-0.17930605
3	0xbe08172d	-0.13290091
4	0xbe18acff	-0.14909743
5	0xbe76335b	-0.24043028
6	0x3e33f19b	0.17572634
7	0xbd949fd3	-0.072570466
8	0xbdfe1e3a	-0.12408109
9	0x3e11984f	0.14218257
10	0xbdecea5b	-0.11568137
11	0xbe33ac12	-0.17546108
12	0x3ddb8091	0.107178815
13	0xbdbe2675	-0.09284679
14	0x3caa8181	0.020813705
15	0x3d618a55	0.055063564
16	0xbd941c45	-0.072319545
17	0xbd6e6bb7	-0.058208194
18	0xbcb31d0e	-0.02186444
19	0x3e9ed25f	0.31019875
20	0x3d81b45c	0.06333229
21	0xbcb4d877	-0.022075875
22	0xbe17f690	-0.1484015
23	0xbed3fc7c	-0.41403568
24	0x3e9a8a64	0.3018371
25	0xbe99186e	-0.2990145
26	0x3e80662e	0.25077957
27	0xbd5bf5d5	-0.05370124
28	0xbd8d78dc	-0.06907818
29	0x3dfbc143	0.12292721
30	0xbe000bb2	-0.12504461
31	0xbe72d55a	-0.237142

model1.2.weight f4 [32, 32, 5, 5]
0	0xbd3cf10f	-0.04612833
1	0xbc6d4186	-0.014480954
2	0x3c89e835	0.016834358
3	0xbc028393	-0.00796594
4	0xbd03acbe	-0.03214716
5	0xbceb3666	-0.028712463
6	0xbcd04522	-0.02542359
7	0x3c99a316	0.018754523
8	0xbc549d12	-0.012976902
9	0xbd438761	-0.04773653
10	0xbdd26697	-0.10273474
11	0xbd9e87bb	-0.07740732
12	0x3afb27fb	0.0019161695
13	0x3c41fd95	0.011840244
14	0xbc18ba07	-0.009321696
15	0x3da7e2f2	0.08197583
16	0x3e133823	0.14376883
17	0x3e2753de	0.16340587
18	0x3dcf6429	0.10126526
19	0x3db87e4e	0.09008466
20	0x3cb943f3	0.022615409
21	0x3d9415ca	0.072307184
22	0x3d127e61	0.035765056
23	0x3bda78e4	0.0066672433
24	0x3bb6055c	0.005554838
25	0x3d2f5d62	0.042813666
26	0xbcb0cd33	-0.021582222
27	0xbd87a08e	-0.0662242
28	0x3d017653	0.031606983
29	0x3d30ef8f	0.04319721
30	0xbd88ef29	-0.06686241
31	0x3c432df2	0.01191281
32	0xbb9df1d7	-0.0048200893
33	0xbc407d8d	-0.011748684
34	0x3d0d0f68	0.03443852
35	0x3dca28ed	0.09871087
36	0x3dc003c6	0.0937572
37	0x3d5d4ac7	0.05402639
38	0x3d1ab21d	0.03776752
39	0xb96e0463	-0.00022699083
40	0x3c899340	0.016793847
41	0xbcc92263	-0.02455253
42	0xbc8da394	-0.017289914
43	0xbc930812	-0.017948184
44	0x3b83febe	0.0040281704
45	0x3c251ef0	0.010078177
46	0xbd4adc69	-0.049526606
47	0xbd31d225	-0.0434133
48	0xbccad397	-0.024759097
49	0xbd0a9251	-0.033830944
50	0x3e02577e	0.12728688
51	0xbabe9445	-0.0014540037
52	0x3db3ad5e	0.087733015
53	0x3da211ca	0.07913549
54	0x3d69cc84	0.057079807
55	0x3dc5bc83	0.096550964
56	0xbcf1cdfa	-0.029517163
57	0x3de6b85b	0.11265632
58	0xbc906393	-0.017625606
59	0x3d46255c	0.048375472
60	0x3d0d4404	0.034488693
61	0xbd34844e	-0.044071488
62	0xbd0a8c5d	-0.033825267
63	0xbd61e7a2	-0.055152543
64	0xbc7e27a4	-0.015512381
65	0xbdb5af34	-0.08871308
66	0xbdb89584	-0.09012893
67	0xbddb1600	-0.106975555
68	0xbdbabee8	-0.09118444
69	0xbdeb25d1	-0.11481822
70	0xbd15045b	-0.036381107
71	0xbd985de9	-0.07439787
72	0xbe009a45	-0.12558849
73	0xbdc7092b	-0.097185455
74	0xba1dda5b	-0.0006021612
75	0x3b89cfd1	0.004205682
76	0x3c20bfd4	0.00981136
77	0xba926817	-0.0011169937
78	0xbc8aeccf	-0.016958622
79	0xbc3d1d12	-0.011542575
80	0x3d8e0a81	0.06935597
81	0xbc1de8dd	-0.009638038
82	0x3d6a6156	0.057221733
83	0x3c03e5b0	0.008050367
84	0xbc18a475	-0.009316553
85	0xbc9f206e	-0.019424643
86	0x3c84ab4e	0.016194966
87	0x3c98000e	0.018554714
88	0xbc11546c	-0.008870225
89	0x3c635688	0.013875611
90	0xbc8f5821	-0.017498078
91	0x3c582791	0.013193027
92	0x3d543e97	0.051817503
93	0xbc27ca23	-0.010241064
94	0xbcc56761	-0.024097146
95	0xbd16a2f8	-0.036776513
96	0xbd30c1af	-0.04315346
97	0xbd208cdd	-0.039196838
98	0xbccea873	-0.025226807
99	0x3cd403d2	0.025880728
100	0xbc1a01c0	-0.009399831
101	0xbd687ba9	-0.056758557
102	0x3d076f65	0.03306522
103	0x3d00d1cb	0.031450074
104	0xbdc844c1	-0.09778739
105	0x3cd60115	0.026123563
106	0x389d57e7	7.5027165e-05
107	0x3d3e2329	0.04642025
108	0x3c87764c	0.0165359
109	0xbd65d787	-0.056113746
110	0x3d6bd314	0.057574347
111	0xbc42f093	-0.011898178
112	0x3d0dd414	0.03462608
113	0x3cbcb705	0.02303649
114	0x3cbda276	0.023148756
115	0xbd6f453e	-0.058415644
116	0xbdbb2e92	-0.09139742
117	0xbd892810	-0.066970944
118	0xbdb27a5b	-0.08714744
119	0xbda77f91	-0.08178628
120	0xbccef92c	-0.025265299
121	0xbd2bddf8	-0.041959733
122	0xbd5ea13c	-0.054352984
123	0xbd1e3e74	-0.03863378
124	0xbc925bd1	-0.017866047
125	0xbaf40620	-0.0018617548
126	0xbd570237	-0.052492347
127	0xbda06cf7	-0.078332834
128	0xbc6b647c	-0.014367219
129	0xbd235ff2	-0.039886422
130	0x3d829cd2	0.06377567
131	0x3d80bd48	0.062861025
132	0x3d8c1f57	0.06841915
133	0x3d921dcd	0.0713459
134	0x3dc3393d	0.09532402
135	0x3d32517c	0.04353474
136	0x3d1b52b2	0.03792066
137	0x3d5e703c	0.054306254
138	0xbc04e5ea	-0.008111456
139	0xbbd6630a	-0.006542568
140	0xbdc2141d	-0.094764926
141	0xba52ef32	-0.0008046507
142	0xbcb55884	-0.022136934
143	0x3c67c65c	0.014146414
144	0xbce2131b	-0.027597
145	0x3d00ed2b	0.03147618
146	0x3a587ae0	0.0008258056
147	0x3d234a6a	0.03986589
148	0x3d2c10cc	0.042008206
149	0x3c31f203	0.010860923
150	0x3dba1064	0.090851575
151	0x3ca3924e	0.019967224
152	0xba411728	-0.0007365816
153	0x39eefdbd	0.00045583947
154	0x3c5322f9	0.012886756
155	0xbd3b351f	-0.045704957
156	0x3d2fd19a	0.0429245
157	0x3d2d5dcf	0.04232579
158	0x3d1eea88	0.038797885
159	0xbcc99f16	-0.02461199
160	0x3a8a3545	0.001054444
161	0x3c8833e0	0.016626298
162	0x3c94f78d	0.018184448
163	0x3c30865d	0.010774222
164	0xbba814a2	-0.0051294127
165	0x3d07beb4	0.033140853
166	0x3d4c3d10	0.04986292
167	0xbdb87c5c	-0.09008095
168	0xbd8e926c	-0.069615215
169	0xbd9f39c9	-0.077746935
170	0x3d1eb417	0.038745966
171	0xbd1a8ffb	-0.037734967
172	0xbd7058c4	-0.058678403
173	0xbcdb6ade	-0.026784357
174	0x3d2d0f21	0.042250756
175	0x3a1a7537	0.00058921
176	0xbc38f9c5	-0.011290018
177	0x3d4b09ea	0.04957
178	0x3d8fbdcc	0.07018623
179	0xbd1c4a08	-0.03815654
180	0xbcb757cc	-0.022380732
181	0x3c40fe47	0.011779374
182	0x3d19a12c	0.03750722
183	0x3d1469f7	0.03623387
184	0xbd14e1f1	-0.036348287
185	0x3dc7d839	0.09758038
186	0x3d812ba6	0.063071534
187	0x3d0e5872	0.034752317
188	0x3d62cb41	0.05536962
189	0x3c50ee2f	0.0127521
190	0x3d1bfe1d	0.03808414
191	0xbd984912	-0.07435812
192	0xba050837	-0.00050747715
193	0xbcf7e565	-0.030260751
194	0x3d103a92	0.035212107
195	0xbd4cba8e	-0.0499826
196	0x3c634595	0.01387157
197	0xbd982d38	-0.074305
198	0x3cd226cb	0.025653264
199	0xbbef7555	-0.0073076882
200	0xbc80ec61	-0.015737714
201	0xbd1cca96	-0.03827914
202	0xbd18c906	-0.037301086
203	0xbc039f14	-0.008033533
204	0x3cbad11d	0.022804791
205	0x3bc0efec	0.005887976
206	0x3c18b191	0.009319679
207	0x3d82738e	0.063696966
208	0x3d78ebed	0.06077187
209	0x3d6792b9	0.05653641
210	0xbd6d0d20	-0.057873845
211	0x3d627761	0.05528963
212	0xbbbcb402	-0.0057587633
213	0x3d92ecca	0.0717407
214	0x3c80d530	0.015726656
215	0x3e040dab	0.12895839
216	0x3e1262c6	0.14295492
217	0x3dd28c98	0.102807224
218	0x3c1e5d30	0.009665772
219	0x3ba07a82	0.0048974166
220	0x3d80714c	0.0627161
221	0x3d206b4d	0.03916483
222	0x3bc7fd8b	0.0061032227
223	0xbca1a455	-0.01973168
224	0x3c7c754c	0.015408825
225	0x3ce91d21	0.028456273
226	0x3cf69b09	0.030103223
227	0xbb782166	-0.0037861704
228	0xbc3b4d93	-0.011432069
229	0xbd1a9b11	-0.03774554
230	0x3cddc15c	0.02706974
231	0x3d77f88e	0.060539775
232	0x3c021bcb	0.007941197
233	0x3d99e449	0.07514245
234	0xbd0a9d96	-0.033841692
235	0x3998cb8e	0.0002914336
236	0x3de284d2	0.1106049
237	0x3d5eb633	0.054372977
238	0x3d7fdfcf	0.0624693
239	0x3baae260	0.0052149743
240	0xbc8fd96e	-0.017559733
241	0x3a6b7672	0.00089821883
242	0xbd68262b	-0.056677025
243	0xbd0f19d3	-0.034936737
244	0xbda3fc83	-0.08007147
245	0xbd0679ff	-0.03283119
246	0xbda58fcc	-0.08084068
247	0xbcacc9a4	-0.021092243
248	0xbc95a30f	-0.018266229
249	0xbd287b71	-0.041133348
250	0xbbfa4364	-0.007637428
251	0x3cb43a24	0.02200038
252	0xbc324fe7	-0.010883308
253	0x3c719bf3	0.014746654
254	0xbb0f6b99	-0.0021884202
255	0x3d4e7fcd	0.05041485

model1.2.bias f4 [32]
0	0xbea61ee1	-0.32445434
1	0xbd95aa68	-0.07307893
2	0xbe93f172	-0.28895146
3	0xbe8e6848	-0.27813935
4	0xbe9d76c0	-0.30754662
5	0xbe40a752	-0.18813828
6	0xbdc773e6	-0.09738903
7	0xbe6f782b	-0.23385684
8	0xbebdbc33	-0.37057647
9	0xbea002c7	-0.3125212
10	0xbeadb24b	-0.3392509
11	0xbd58ea1a	-0.05295763
12	0xbe9bd1b3	-0.30433425
13	0xbe803f74	-0.2504841
14	0xbe69925c	-0.22809738
15	0xbe3db866	-0.18527374
16	0xbe391408	-0.18074048
17	0xbe925683	-0.28581628
18	0xbe7428e4	-0.23843724
19	0xbe6da1e1	-0.23206283
20	0xbeb14d14	-0.34629118
21	0xbe8919b8	-0.26777434
22	0xbebf736b	-0.37392744
23	0xbea164b6	-0.3152215
24	0xbe28b71f	-0.16476105
25	0xbe505c4d	-0.2034771
26	0xbe9ebc1f	-0.310029
27	0xbea65773	-0.32488593
28	0xbe2e06c0	-0.16994762
29	0xbe973191	-0.29530004
30	0xbe58e39e	-0.21180579
31	0xbf1f43b0	-0.6221266

model1.4.weight f4 [64, 32, 5, 5]
0	0xbc5ebec1	-0.013595284
1	0x3da2b302	0.07944299
2	0x3d9c7350	0.076391816
3	0x3ca9487d	0.020664448
4	0x3cd32c70	0.025778025
5	0x3db1893f	0.08668756
6	0x3d5db92b	0.054131668
7	0x3da02172	0.07818879
8	0x3dd0dcee	0.10198389
9	0x3d4d1b1e	0.05007469
10	0xbc878803	-0.016544348
11	0xbd6c2620	-0.057653546
12	0xbd6645c4	-0.056218877
13	0xbd83a493	-0.064278744
14	0x3aff9217	0.0019498494
15	0x3cd0c1ad	0.025482977
16	0x3a1baef3	0.000593885
17	0xbd02bbb1	-0.031917278
18	0xbc9eb7e3	-0.019374793
19	0xbd822b77	-0.063559465
20	0xbcc87a16	-0.024472278
21	0x3d4715e9	0.04860488
22	0x3d245605	0.040121097
23	0xbc24c628	-0.01005701
24	0xbddd909b	-0.10818597
25	0xbcf1967c	-0.029490702
26	0x3db9f822	0.09080531
27	0x3cebe30e	0.028794792
28	0x3ccb75eb	0.024836501
29	0xbd043032	-0.032272525
30	0xbdb15831	-0.08659399
31	0x3c0aec83	0.00847924
32	0x3d1770cf	0.036972817
33	0x3ca510fb	0.020149698
34	0xbc8fa902	-0.017536644
35	0x3c4e702d	0.012599987
36	0xbe156f02	-0.14593127
37	0xbc964542	-0.018343572
38	0x3c35b491	0.011090414
39	0x3da1c801	0.07899476
40	0x3d0423c9	0.03226069
41	0xbd28e1d0	-0.041230977
42	0xbd7da1e9	-0.061921988
43	0x3d733140	0.05937314
44	0xbdcc70ab	-0.09982427
45	0xbd5daba6	-0.054118775
46	0xbda438bd	-0.080186345
47	0xbcc167f6	-0.023609143
48	0xbcce8853	-0.025211489
49	0x3c5584a2	0.01303211
50	0xbca62a62	-0.020283882
51	0x3d117d55	0.035519917
52	0xbc88611b	-0.016647866
53	0xbc197de0	-0.00936839
54	0x3b11957e	0.0022214348
55	0xbd821e02	-0.0635338
56	0xbb541006	-0.0032358184
57	0x3ca67e10	0.020323783
58	0xbbf3c27a	-0.007438955
59	0x3d8ffbed	0.07030473
60	0xbb3f16bf	-0.0029157845
61	0xbd09d0c6	-0.033646367
62	0x3caffa23	0.02148158
63	0xbc4e2aeb	-0.012583475
64	0x3b988ac1	0.0046552126
65	0xbcb534a9	-0.022119837
66	0x3d2b2f08	0.0417929
67	0xbd146217	-0.03622636
68	0x3ce94d37	0.028479202
69	0xbccf9d61	-0.025343599
70	0xbc698413	-0.01425268
71	0xbd3087a2	-0.0430981
72	0xbd3d7169	-0.046250734
73	0x3cca8ea9	0.024726229
74	0x3c76f440	0.015072882
75	0x3d03df0e	0.032195143
76	0xbc2eab45	-0.010660951
77	0xbd60791b	-0.054802995
78	0xbd0d8d11	-0.03455836
79	0x3cea48f6	0.028599244
80	0x3be7d3a7	0.0070747915
81	0x3d341051	0.043960873
82	0xbd8be6cd	-0.06831131
83	0xbbdc8e2e	-0.0067308163
84	0x3c509997	0.012731931
85	0x3d80e4b0	0.06293619
86	0xbc91f775	-0.017818192
87	0x3b675cc2	0.003530309
88	0xbcea30f6	-0.0285878
89	0x3d74bbb5	0.059749324
90	0xbda2832e	-0.07935177
91	0xbabd08fc	-0.0014422233
92	0x3c609a5f	0.01370868
93	0xbd1fd3dc	-0.039020404
94	0xbd3fe15d	-0.046845783
95	0xbd947a09	-0.07249839
96	0xbcbce742	-0.023059491
97	0x3d1f577c	0.03890179
98	0x3c742855	0.014902194
99	0x3d91685c	0.07099983
100	0x3cbee828	0.02330406
101	0xbd32c655	-0.043646175
102	0xbc816e6c	-0.015799724
103	0xbd600c2e	-0.054699115
104	0x3d6723fa	0.056430794
105	0x3c999e3f	0.018752215
106	0x3c1c237d	0.009529945
107	0xbd8e21cf	-0.06940042
108	0x3c8867aa	0.016650993
109	0xbd46a776	-0.048499547
110	0xbc3f258b	-0.011666666
111	0x3d959214	0.07303253
112	0xbc014790	-0.007890597
113	0xbd5ef557	-0.054433193
114	0xbbe42359	-0.0069622216
115	0xbd3b5642	-0.04573656
116	0xbb61fe27	-0.0034483762
117	0xbb37d287	-0.0028049068
118	0xbd32ad0f	-0.043622073
119	0x3d641177	0.05568072
120	0x39c32946	0.0003722405
121	0xbd9b9726	-0.07597189
122	0x3d2bfe1e	0.041990392
123	0x3b178f9f	0.0023126376
124	0x39874661	0.00025801643
125	0x3dc8bb64	0.09801367
126	0x3d56c878	0.052437276
127	0xbd648108	-0.055787116
128	0x3c023c83	0.007948997
129	0xbcda9539	-0.026682483
130	0xbcc3da68	-0.023907855
131	0xbcd803d0	-0.026369005
132	0x3cf13d12	0.029448066
133	0xbd2deae9	-0.042460356
134	0xbd9f6782	-0.077834144
135	0xbd9ce124	-0.0766013
136	0x3d37ea0d	0.044900943
137	0x3d07edf1	0.033185903
138	0xbcb17401	-0.02166176
139	0x3c8cac4f	0.017172007
140	0xbd7d58cc	-0.06185226
141	0x3c886bd3	0.016652977
142	0xbd612dae	-0.054975204
143	0xbdc07a65	-0.09398345
144	0xbbc86e15	-0.0061166384
145	0x3c1e433b	0.009659584
146	0x3d4da2a2	0.050203927
147	0x3d21aea8	0.039473206
148	0xbd3a656c	-0.04550688
149	0x3c647fda	0.013946498
150	0x3bd2339c	0.0064148437
151	0x3d1ed131	0.03877372
152	0xbcff65a3	-0.031176394
153	0xbd943e60	-0.072384596
154	0x3ca8b9de	0.02059644
155	0xbd572c7e	-0.052532665
156	0xbbb175fd	-0.0054156766
157	0xbdae899a	-0.08522339
158	0xbc4950e4	-0.012287352
159	0x3d812ddf	0.06307577
160	0x3d630c58	0.055431694
161	0x3d099719	0.033591364
162	0xbdebc864	-0.11512831
163	0x3d672464	0.05643119
164	0x3c6a6479	0.014306181
165	0xbbc58f3a	-0.006029037
166	0x3b07a3f0	0.002069708
167	0xbd044aeb	-0.03229801
168	0x3d8e470a	0.069471434
169	0xbbf48d3b	-0.007463125
170	0xba30296e	-0.00067200407
171	0x3bf2cc03	0.007409574
172	0x3cf76735	0.03020058
173	0xbd5ef592	-0.054433413
174	0x3d12dd12	0.03585536
175	0xbbea0acc	-0.0071424004
176	0xbdbf684f	-0.09346067
177	0x3c88f4d6	0.01671831
178	0x3d1d1f6b	0.03836004
179	0xbba02eac	-0.004888376
180	0xbcb00fa7	-0.021491839
181	0xbc231c5c	-0.009955492
182	0xbd56c276	-0.052431546
183	0xbd63a386	-0.05557587
184	0xbcb3de26	-0.021956515
185	0xbce6d01c	-0.028175406
186	0xbd8c696b	-0.068560444
187	0xbd6b10b1	-0.057388965
188	0x3cbfbb45	0.023404727
189	0xbc638ab7	-0.013888053
190	0x3ce67518	0.028132007
191	0xbd8bea57	-0.06831806
192	0x3d1e6261	0.03866804
193	0xbcaf61a0	-0.021408856
194	0x3ccee317	0.02525477
195	0x3da2cdba	0.079493955
196	0xbd0cba47	-0.034357335
197	0xbce36d52	-0.027762089
198	0xbe16e0fb	-0.1473426
199	0x3d3e830b	0.04651169
200	0xbdb0569c	-0.086102694
201	0xbd937815	-0.07200638
202	0xbe03d895	-0.12875588
203	0x3d6dd07d	0.058060158
204	0x3cbdd0f4	0.023170926
205	0x3ca9edd0	0.02074328
206	0xbbcc65ea	-0.006237735
207	0xbda8e606	-0.082469985
208	0xbd590a25	-0.05298819
209	0x3db770f7	0.08957093
210	0x3d05fd43	0.032712232
211	0x3b4c371a	0.0031160773
212	0xbdc6426d	-0.096806385
213	0xbaa8a942	-0.0012867826
214	0xbc823ec1	-0.015899064
215	0xbd49f280	-0.04930353
216	0x3d4b3f74	0.04962106
217	0x3d5bab31	0.053630058
218	0xbdaf803e	-0.08569382
219	0xbd901926	-0.07036047
220	0xbcca9c2d	-0.024732674
221	0xbd0f0088	-0.034912616
222	0x3d6609c4	0.056161657
223	0xbcbf2281	-0.023331882
224	0xbe29579e	-0.1653733
225	0x3cd62c53	0.026144182
226	0xbd2e7e5f	-0.042600986
227	0xbdd4935b	-0.10379668
228	0xbd329110	-0.043595374
229	0x3db50fe1	0.08840919
230	0x3dc2717b	0.09494301
231	0xbd3408a4	-0.043953553
232	0x3cdf7b01	0.027280333
233	0x3d4062aa	0.046969093
234	0xbbe7d264	-0.007074641
235	0xbd957e58	-0.07299489
236	0x3caee526	0.0213495
237	0x3d2f3f74	0.042785123
238	0x3dc37cdf	0.09545302
239	0x3d108657	0.035284366
240	0xbd62e7fe	-0.055397026
241	0x3c752d40	0.014964402
242	0xbc8c6cb4	-0.017141677
243	0xbc39ea23	-0.011347326
244	0xbddcdc6e	-0.10784231
245	0x3a70e874	0.00091899117
246	0xbce455c5	-0.02787293
247	0x3cebc239	0.028779136
248	0xbceece21	-0.029151024
249	0x3d68228f	0.056673583
250	0x3daa53d6	0.08316772
251	0x3d9e4e32	0.07729758
252	0x3d09db9d	0.033656705
253	0x3d3ba39d	0.04581033
254	0xbd812723	-0.06306293
255	0xbcb80906	-0.02246524

model1.4.bias f4 [64]
0	0xbd882778	-0.06648153
1	0xbc769bb3	-0.01505177
2	0xbe8262d3	-0.25466022
3	0xbe3eaca1	-0.1862054
4	0xbda1614d	-0.07879887
5	0xbdd74bc4	-0.10512498
6	0xbdcf4e59	-0.101223655
7	0xbe4d6f20	-0.20061922
8	0xbe33b540	-0.1754961
9	0xbe0ca888	-0.13736165
10	0xbde83ecf	-0.11340105
11	0xbe1b5723	-0.15169959
12	0xbe96819c	-0.2939576
13	0xbe422aa5	-0.1896158
14	0xbda08a46	-0.078388736
15	0xbdc42e54	-0.09579149
16	0xbe12b7e7	-0.14327966
17	0xbdd4fcd1	-0.103997834
18	0xbe782b1a	-0.24235192
19	0xbdd9a245	-0.106266536
20	0xbe162f45	-0.1466647
21	0xbe11f6a1	-0.14254238
22	0xbd64275e	-0.055701606
23	0xbdd9c216	-0.10632722
24	0xbdd81795	-0.10551373
25	0xbd91b5f6	-0.071147844
26	0xbdd404fe	-0.10352515
27	0xbd611831	-0.05495471
28	0xbe3a4342	-0.1818972
29	0xbce25b36	-0.027631383
30	0xbea37464	-0.31924736
31	0xbe1585ec	-0.14601868
32	0xbde82460	-0.11335063
33	0xbd452cf3	-0.04813857
34	0xbd6490fa	-0.055802323
35	0x3b783c8b	0.0037877883
36	0xbd825f94	-0.06365886
37	0xbe3677ed	-0.17819186
38	0xbd81afa1	-0.06332327
39	0xbddbd894	-0.107346684
40	0xbba0a421	-0.004902378
41	0xbe57c3a6	-0.21070728
42	0xbdf58bc4	-0.11989549
43	0xbe065774	-0.13119298
44	0xbe1aab4d	-0.15104409
45	0xbe10fe8b	-0.141596
46	0xbe20d5a7	-0.15706502
47	0xbe215769	-0.15756
48	0xbe0e6ab5	-0.13907893
49	0xbe210b9c	-0.15727085
50	0xbe05c0e5	-0.13061865
51	0xbe19cd6c	-0.15019768
52	0xbdda15aa	-0.10648663
53	0xbe28fd3e	-0.16502854
54	0xbe32064d	-0.17385216
55	0xbe3669a5	-0.17813738
56	0xbe2eafbf	-0.1705923
57	0xbd93c4f9	-0.07215304
58	0xbe08028a	-0.13282219
59	0xbd3ffb09	-0.046870265
60	0xbdb3a5f6	-0.08771889
61	0xbe2415aa	-0.16023889
62	0xbd074608	-0.03302577
63	0xbe871f99	-0.26391295

model1.7.weight f4 [64, 1024]
0	0xbc58a0a0	-0.01322189
1	0x3d866cb3	0.065637015
2	0x3c9d382d	0.019191826
3	0x3d08dee7	0.0334157
4	0x3cf609c2	0.03003395
5	0x3bc2af0f	0.0059412788
6	0xbd3e26ae	-0.046423607
7	0x3ad79912	0.0016448817
8	0x3c91f5bc	0.01781737
9	0x3d8c2865	0.06843642
10	0x3cf56fd3	0.029960549
11	0x3d06fb1a	0.032954313
12	0x3c954fb5	0.018226484
13	0x3d551992	0.05202634
14	0x3d812ced	0.06307397
15	0x3d5f477b	0.05451153
16	0x3cf4710f	0.029839067
17	0xbd25be6d	-0.040464807
18	0xbc40cabb	-0.011767085
19	0x3d3f0890	0.046639025
20	0x3b98b406	0.0046601323
21	0xbd46343c	-0.04838966
22	0x3b35ca8a	0.002773913
23	0x3c8b08b8	0.01697193
24	0x3d09c09d	0.033630956
25	0xbb8d89f3	-0.0043194233
26	0xbdaf66cd	-0.085645296
27	0xba76dbb1	-0.0009416892
28	0xbbff1a5c	-0.0077851247
29	0xbd2988a1	-0.041390065
30	0xbd214158	-0.039368957
31	0xbcb11bf6	-0.021619778
32	0xbd6ff11d	-0.058579553
33	0x3c0753ba	0.008259708
34	0xbcb50f23	-0.022101944
35	0xbd8090dc	-0.0627763
36	0xbd83fbf8	-0.064445436
37	0xbc730425	-0.014832531
38	0x3d588cef	0.05286878
39	0x3d5c9957	0.053857174
40	0x3d779be9	0.060451422
41	0x3cefc907	0.029270662
42	0x3c955c1a	0.018232394
43	0x3d1f36e1	0.038870696
44	0xbd39b248	-0.045336038
45	0xbd253fb7	-0.040343966
46	0x3b8d9698	0.0043209307
47	0x3c4be1c1	0.012443961
48	0x3d373697	0.044729795
49	0xbd2f70f9	-0.04283235
50	0x3d60daab	0.054896038
51	0x3d3e9ddb	0.04653726
52	0x3baba3e5	0.0052380436
53	0x3d4de4fd	0.05026721
54	0x3d413425	0.04716887
55	0x3b210819	0.0024571477
56	0xbd8e3e0b	-0.069454275
57	0xbc5dbc98	-0.013533734
58	0xbcea6ace	-0.028615382
59	0xbd7527d2	-0.05985243
60	0xbd58d74e	-0.052939706
61	0xbda35dd1	-0.079768784
62	0xbbbd3f34	-0.0057753567
63	0xbd9c4511	-0.07630361
64	0x3c99be09	0.018767374
65	0x3be3583c	0.0069380086
66	0xbd113ce1	-0.03545845
67	0xbd408ceb	-0.04700939
68	0x3d70ec5c	0.05881916
69	0xbc3aed3c	-0.0114091
70	0xba24c3f8	-0.0006285305
71	0x3d46ab35	0.04850312
72	0xbd2b15d2	-0.041768856
73	0x3c0466a1	0.008081109
74	0xbd286408	-0.041111022
75	0x3c7151fa	0.014729017
76	0xbd3427b8	-0.04398319
77	0xbd99d9aa	-0.07512219
78	0xbb0b6f42	-0.0021276032
79	0x3b8cc26f	0.004295639
80	0x3c0a7957	0.008451781
81	0x3c972708	0.018451229
82	0x3c8b2cff	0.01698923
83	0x3b006f74	0.0019597681
84	0x3b07c28c	0.0020715324
85	0x3c71ed93	0.014766115
86	0x3d27e42d	0.04098909
87	0x3b97055b	0.0046087927
88	0x3c18abaa	0.009318272
89	0x3d26d7e3	0.04073323
90	0xbd0cfbae	-0.034419708
91	0x3c82e66a	0.01597901
92	0x3d228923	0.039681565
93	0xbc4b68db	-0.012415136
94	0x3cc141bc	0.023590915
95	0x3d613a5e	0.054987304
96	0x3cb991ee	0.022652593
97	0x3c9ecd78	0.019385085
98	0x3b9dbbb1	0.0048136343
99	0xbd18e22f	-0.03732508
100	0xbc3f30aa	-0.011669317
101	0x3c66924d	0.014072967
102	0xbd7aef9f	-0.061263677
103	0xbcbf4fea	-0.023353536
104	0xbc619398	-0.013768099
105	0xbc5eab28	-0.0135906115
106	0x3d42b9d6	0.04754051
107	0x3c89a3cb	0.016801735
108	0x3d001f0a	0.0312796
109	0xbd27f053	-0.041000675
110	0x3d50d3eb	0.05098335
111	0xbc84c7db	-0.01620858
112	0x3cdb1e32	0.026747797
113	0xbcea2b02	-0.02858496
114	0xbc4e40b6	-0.0125886705
115	0xbc8809a3	-0.016606158
116	0xbcbd5f60	-0.023116767
117	0x3cc949a0	0.02457124
118	0x3c00968a	0.007848391
119	0xbb99a1a9	-0.004688461
120	0xbcb9e01e	-0.022689875
121	0xbd19a3f5	-0.037509877
122	0x3d1e1443	0.03859354
123	0x3be5b6cc	0.0070103165
124	0x3db7fa91	0.089833386
125	0x3c931add	0.017957145
126	0x3cc26390	0.023729116
127	0xbcd6713e	-0.026177045
128	0x3c8e638f	0.017381458
129	0x3d25870e	0.040412
130	0xbcfd7885	-0.030941257
131	0xbc940b61	-0.018071832
132	0x3d4bf404	0.04979326
133	0x3d95d99a	0.07316895
134	0x3c39d61e	0.011342553
135	0x3cd7d063	0.026344484
136	0x3cc7fdbe	0.024412986
137	0x3ccb59e2	0.024823133
138	0x3c9ca8b8	0.01912342
139	0x3d7009dc	0.058603153
140	0x3ccafcab	0.024778685
141	0xba007ab5	-0.0004901097
142	0xbd0ccefe	-0.03437709
143	0xbd3fbaee	-0.04680913
144	0x3ce8dabb	0.028424611
145	0xbd81fff2	-0.06347646
146	0xbb99c444	-0.004692586
147	0xbd18c314	-0.037295416
148	0xbcd7b396	-0.02633075
149	0x3d28d0ae	0.041214637
150	0x3cd30f47	0.02576412
151	0xbd299334	-0.04140015
152	0xbd17f70b	-0.037100833
153	0x3d1c98e7	0.038231757
154	0xbbf3c5ec	-0.0074393656
155	0x3ca34a59	0.019932913
156	0x3c9e7c92	0.01934651
157	0xbaa72ef3	-0.0012755081
158	0xbd86a0fa	-0.065736726
159	0xbd81a4e5	-0.06330279
160	0x3d52d7f7	0.05147549
161	0xbc969c3c	-0.018385045
162	0x3c0a2f24	0.008434091
163	0xbca1ca5e	-0.019749817
164	0xbc922462	-0.017839614
165	0xbb8cfa7f	-0.0043023224
166	0xbc268475	-0.010163416
167	0xbd189d47	-0.037259366
168	0xbcc54439	-0.024080383
169	0x3ae7fbc6	0.0017698936
170	0x3c20dc4e	0.00981815
171	0xbc6f1ced	-0.014594299
172	0xbd9fad04	-0.07796672
173	0x3c3e9103	0.011631253
174	0xbdbcefa4	-0.09225395
175	0x3d4d2365	0.050082583
176	0xbcac7685	-0.021052608
177	0x3ca3c46b	0.01999112
178	0x3b445c36	0.0029962189
179	0xbc8dfbf9	-0.017332064
180	0x3d385a8b	0.045008224
181	0xbc9d9204	-0.019234665
182	0x3b31af36	0.002711249
183	0x3c4ae987	0.012384779
184	0xbc912ec5	-0.017722497
185	0x3d858c22	0.06520869
186	0x3cced9ae	0.025250282
187	0xbcbe0a05	-0.023198137
188	0xbb57baeb	-0.0032917808
189	0xbb6d1c1b	-0.0036180082
190	0xbc99b32d	-0.018762195
191	0x3d21a711	0.039465968
192	0xbb7548bd	-0.0037427389
193	0xbd34a950	-0.04410678
194	0xbc290c77	-0.010317913
195	0xbd6b1eed	-0.05740254
196	0x3c9b10a1	0.018928828
197	0xbc14e2c9	-0.009087273
198	0xbcd8f4f1	-0.026483985
199	0x3cfade26	0.030623507
200	0x3c2ceb56	0.010554155
201	0x3d91d788	0.071211874
202	0xbcba2f4f	-0.022727637
203	0x3da64e10	0.08120358
204	0x3bc242a1	0.005928353
205	0x3c4a35ad	0.012341899
206	0xbd3c1a2c	-0.045923397
207	0x3cd90cfb	0.026495447
208	0x3cb5af50	0.022178322
209	0xbd823456	-0.063576385
210	0xbab5d565	-0.0013872801
211	0x3d179b60	0.03701341
212	0x3d8b0a06	0.06789021
213	0x3d05a0ef	0.03262418
214	0xbd71c072	-0.05902142
215	0x3c0041e8	0.007828213
216	0xbce78ac8	-0.028264418
217	0xbc51aa5b	-0.012796964
218	0xbd3fb0da	-0.04679952
219	0xbc119b2d	-0.008887094
220	0x3d81198a	0.06303699
221	0x3d637ce5	0.05553903
222	0x3b47a619	0.0030463992
223	0x3d7e6354	0.062106445
224	0x3d270def	0.040784772
225	0x3d002cff	0.03129291
226	0x3c683515	0.014172812
227	0x3d6e62da	0.05819974
228	0xbd33ccab	-0.04389636
229	0x3bf28309	0.0074008745
230	0xbcc22cc6	-0.02370299
231	0x3c92b3d1	0.017908009
232	0x3caf200d	0.021377588
233	0xbcb03f7d	-0.021514649
234	0xbc5e6322	-0.01357344
235	0xbbec8773	-0.0072182952
236	0xbca6d666	-0.020365905
237	0x3da8960c	0.08231744
238	0xbac65d82	-0.0015134069
239	0xbcef3f59	-0.029205011
240	0xbc86af2a	-0.016440947
241	0xbd07d8c4	-0.03316571
242	0x3b1d118a	0.0023966753
243	0xbb42fb1e	-0.0029751728
244	0xbd0115e6	-0.031515025
245	0x3b5ba887	0.0033517198
246	0x3c85a48a	0.01631381
247	0x3ccb51e3	0.02481932
248	0x3b9d1af0	0.004794471
249	0xbd8cb271	-0.068699725
250	0x3bd7329d	0.006567313
251	0x3d730171	0.059327547
252	0x3d9c54fa	0.076333955
253	0xbc340715	-0.010988017
254	0x3b957797	0.0045613754
255	0x3dec31d0	0.115329385

model1.7.bias f4 [64]
0	0x3c8c142d	0.017099464
1	0xbc83e6f4	-0.016101338
2	0xbd36a45e	-0.044590347
3	0x3b7ba8b5	0.0038400118
4	0xbc92d215	-0.01792244
5	0xbd11e834	-0.035621837
6	0x3d60dbf1	0.054897252
7	0x3da1476a	0.07874949
8	0xbc92d510	-0.017923862
9	0xbd0c8bd8	-0.034313053
10	0xbca1a31c	-0.019731097
11	0x3d3a7a57	0.04552683
12	0x3c81f604	0.01586438
13	0xbd5a4c9c	-0.053295717
14	0xbc0e5900	-0.008688211
15	0x3d888214	0.066654354
16	0xbd4dc15d	-0.050233234
17	0xbd1d27e8	-0.038368136
18	0x3b97c82a	0.0046320157
19	0x3d75b39e	0.05998575
20	0xbc126690	-0.008935586
21	0x3c68a1d3	0.014198738
22	0xbbe8fbe9	-0.007110108
23	0xbd18394c	-0.037164018
24	0x3cbf604a	0.023361344
25	0x3d3c4ec8	0.04597357
26	0x3ceec1e2	0.029145185
27	0xbd43db9c	-0.047816858
28	0x3d891ddb	0.066951476
29	0xbd9513d4	-0.072791725
30	0xbc1886d3	-0.009309488
31	0xbcd57249	-0.026055472
32	0xbc1b59c8	-0.009481855
33	0x3dc87a05	0.097888984
34	0x3cd6aeb1	0.026206346
35	0xbd87098c	-0.06593618
36	0xbd143e8d	-0.036192466
37	0xbc86a389	-0.016435402
38	0x3d34a554	0.04410298
39	0x3d289b98	0.04116401
40	0x3df4099d	0.11915896
41	0x3d1c8fac	0.038222954
42	0xbd6093ec	-0.05482857
43	0x3d05a73e	0.032630198
44	0xbca934c8	-0.02065505
45	0x3c8b472c	0.01700171
46	0x3d48b3af	0.048999485
47	0xbd8eefb0	-0.069793105
48	0x3c23adf0	0.0099902
49	0x3c84d47b	0.0162146
50	0x3d361952	0.04445774
51	0xbcd7c391	-0.02633837
52	0x3e048d46	0.12944517
53	0xbc056fb7	-0.008144311
54	0x3c07490d	0.008257163
55	0x3bb3ccb1	0.0054870476
56	0xbd723ada	-0.059138156
57	0x3c7f571c	0.015584733
58	0x3d8ef6bd	0.06980655
59	0x3d791e1c	0.06081973
60	0x3cc23339	0.023706065
61	0x3c97697c	0.018482916
62	0x3cc41c8e	0.023939397
63	0xbd51ffc6	-0.051269315

model1.8.weight f4 [10, 64]
0	0x3cde67e5	0.02714915
1	0x3cf2b017	0.029624982
2	0x3e5ef3a5	0.2177263
3	0x3e0fe27d	0.14051242
4	0x3e75db4e	0.2400944
5	0xbe5b38f0	-0.21408439
6	0x3d07195d	0.032983173
7	0x3d9b2354	0.07575098
8	0x3e459185	0.19293793
9	0x3e95e98c	0.29279745
10	0x3e25ea5b	0.16202681
11	0xbe178d0d	-0.147999
12	0x3db34521	0.0875342
13	0x3e741ccb	0.23839109
14	0xbbae2498	-0.005314421
15	0xbdc601c7	-0.09668308
16	0x3dffb36e	0.12485395
17	0x3e47be25	0.19506128
18	0xbdfb1ea3	-0.12261703
19	0x3e138ed3	0.14409952
20	0x3c18727c	0.009304639
21	0xbe50bb94	-0.20384055
22	0xbe387fd3	-0.18017511
23	0xbdb57eb1	-0.08862055
24	0xbecff0be	-0.4061336
25	0xbe6d2a60	-0.23160696
26	0x3e30f9ee	0.1728284
27	0x3e6f9b3d	0.23399062
28	0xbe4efbfa	-0.20213309
29	0x3e8c0dbe	0.27354234
30	0xbe51d259	-0.20490398
31	0x3da572da	0.08078547
32	0x3c1a3253	0.009411412
33	0x3d7dbe67	0.06194916
34	0xbe6784df	-0.2260928
35	0x3e7aa885	0.24478348
36	0x3d785054	0.060623482
37	0x3e974208	0.29542565
38	0xbe48fa39	-0.19626702
39	0xbea91f6d	-0.33031788
40	0x3c9b2e75	0.01894305
41	0xbe4d3157	-0.20038353
42	0xbe81e233	-0.2536789
43	0xbc1e69cf	-0.009668781
44	0xbd7cf1ca	-0.061754026
45	0xbe0d382e	-0.13790962
46	0xbe8e0545	-0.27738395
47	0x3e1998bc	0.1499967
48	0x3e117619	0.14205207
49	0xbebcb435	-0.36856237
50	0x3d8078a3	0.0627301
51	0x3cb83ba1	0.02248937
52	0xbe5819d6	-0.21103606
53	0xbe1f7ea2	-0.1557565
54	0x3ca702df	0.020387111
55	0xbe7ab3c7	-0.24482642
56	0xbd7d1915	-0.0617915
57	0x3e398ae8	0.18119395
58	0x3e179714	0.14803725
59	0xbd294dea	-0.04133407
60	0xbe9af4f2	-0.30265003
61	0xbe6c6cbe	-0.23088357
62	0x3db2425d	0.08704064
63	0xbe28773b	-0.16451733
64	0x3e95f0af	0.2928519
65	0x3e444d49	0.19170107
66	0x3e93a57c	0.28837192
67	0xbd2e08f0	-0.042488992
68	0xbda51d57	-0.08062237
69	0x3e981dad	0.2971014
70	0x3d83d078	0.06436247
71	0xbea5aec6	-0.32359904
72	0xbe8be7bc	-0.27325237
73	0x3ef3c850	0.47613764
74	0xbe80ec98	-0.25180507
75	0x3e6968e2	0.22793916
76	0xbe7d1ff9	-0.24719228
77	0x3e155e6c	0.145868
78	0x3da38f8f	0.07986366
79	0x3e68ab61	0.22721626
80	0xbe6d1a37	-0.23154531
81	0x3d90dbf4	0.07073203
82	0x3e285174	0.16437322
83	0xbe34f757	-0.17672478
84	0x3e92ae2e	0.28648514
85	0xbc89b437	-0.016809566
86	0xbead7097	-0.33874962
87	0xbe07c5bb	-0.13259022
88	0x3e4ebc8b	0.20189111
89	0x3e423f6a	0.18969503
90	0xbda603e8	-0.08106214
91	0x3efede69	0.4977906
92	0xbe15fba8	-0.1464678
93	0x3dfe8e2c	0.12429461
94	0x3e0bdd99	0.13658752
95	0x3eaed9d9	0.3415058
96	0x3dea46f5	0.11439315
97	0xbe1f6fb2	-0.15569952
98	0x3da86ac3	0.08223488
99	0xbe7dd106	-0.24786767
100	0xbcb5b6f0	-0.022181958
101	0x3e2b6d77	0.16740976
102	0xbdb3fb23	-0.08788135
103	0x3e914e42	0.28380018
104	0xbea933b1	-0.3304725
105	0xbe8dfd57	-0.27732345
106	0x3db9ac77	0.09066098
107	0x3dfd94dd	0.12381909
108	0xbeaa8a58	-0.33308673
109	0x3eb79d27	0.35862085
110	0x3ea9abc2	0.33138853
111	0xbe339488	-0.17537129
112	0xbe3ba359	-0.18324031
113	0xbe93804c	-0.2880882
114	0xbdd0b4dd	-0.10190747
115	0x3e2fc633	0.17165451
116	0xbe69809f	-0.22802971
117	0x3dfb0daf	0.12258469
118	0xbe501431	-0.20320202
119	0xbdf611ab	-0.12015089
120	0x3ee84d0e	0.45371288
121	0x3db18e41	0.08669711
122	0xbe844c53	-0.2583948
123	0x3e0b4f1e	0.136044
124	0x3d941dbc	0.07232234
125	0x3eaed620	0.3414774
126	0xbeb94a12	-0.36189324
127	0x3d1760a9	0.036957417
128	0x3e1d2622	0.15346578
129	0xbe8dc713	-0.27690944
130	0x3d9fff2f	0.07812344
131	0x3e5482a0	0.20752954
132	0x3e6305a0	0.22170115
133	0xbe80f318	-0.25185466
134	0x3e7a67f1	0.24453713
135	0xbeac1243	-0.33607683
136	0x3e0a80f9	0.13525762
137	0xbeb0dd1b	-0.3454369
138	0xbe3d9cb7	-0.18516813
139	0xbe8c418e	-0.27393764
140	0xbad7afea	-0.0016455625
141	0x3d58d361	0.05293596
142	0xbe755215	-0.23957093
143	0x3e4d36b3	0.20040397
144	0xbd5c4f29	-0.05378643
145	0xbe1d897d	-0.15384479
146	0xbd31d505	-0.043416042
147	0xbcc779ed	-0.02435013
148	0xbe606ab9	-0.21915711
149	0xbe34ef12	-0.17669323
150	0x3e2d7d7d	0.16942401
151	0x3c200499	0.009766721
152	0xbd8791ae	-0.06619583
153	0xbdd0bc09	-0.10192115
154	0xbbf15ecb	-0.0073660365
155	0xbeb41b1e	-0.3517694
156	0x3e95ab6a	0.2923234
157	0xbde24e3e	-0.1105008
158	0x3e686a09	0.22696699
159	0xbe7e267f	-0.24819373
160	0x3e0a1e16	0.1348804
161	0x3e5d992e	0.21640465
162	0x3de1dba2	0.1102822
163	0x3e722725	0.23647745
164	0xbe23cf37	-0.15997015
165	0xbc3dde9a	-0.011588717
166	0x3df40b28	0.119161904
167	0xbdfa1ddd	-0.12212727
168	0xbe297155	-0.16547139
169	0xbe8ea50c	-0.27860296
170	0xbe32dd0e	-0.17467138
171	0xbdf55c51	-0.119804986
172	0x3c81ab22	0.015828673
173	0x3e071abd	0.13193794
174	0xbd25d614	-0.040487364
175	0x3d8fad46	0.07015471
176	0xbaa6adc2	-0.0012716579
177	0x3cd4ebb5	0.0259913
178	0x3dac21f6	0.08404915
179	0x3e717e57	0.23583351
180	0xbd832f70	-0.06405532
181	0x3ddf7a6c	0.10912022
182	0x3e2f8ad1	0.17142798
183	0x3ddd0935	0.10792772
184	0xbe16bb3a	-0.14719859
185	0xbded6363	-0.11591222
186	0x3c44bfcb	0.012008618
187	0x3e26ab74	0.16276342
188	0xbcd57e4c	-0.0260612
189	0xbe962672	-0.29326206
190	0x3e144240	0.14478397
191	0x3e5453ea	0.20735136
192	0xbe1d0d16	-0.15337023
193	0xbce68558	-0.028139755
194	0x3c4d177a	0.012517804
195	0x3e11edce	0.14250872
196	0xbe893dcc	-0.2680496
197	0x3e083916	0.13303027
198	0x3dbe24a0	0.092843294
199	0x3dd6f7d8	0.10496491
200	0x3c4d527a	0.012531871
201	0xbe166587	-0.14687167
202	0xbd729dca	-0.05923251
203	0x3ea1c933	0.31598815
204	0x3d11657c	0.035497174
205	0x3e9405f9	0.28910807
206	0x3c4ad47a	0.01237976
207	0xbdadd325	-0.08487538
208	0x3e508754	0.20364124
209	0xbe319631	-0.1734245
210	0xbd386061	-0.04501379
211	0x3d89da19	0.06731052
212	0xbe234470	-0.15944076
213	0xbd855aad	-0.06511436
214	0x3e5ee59d	0.21767278
215	0xbdd501fc	-0.10400769
216	0xbc9435cb	-0.018092057
217	0x3e1f8c14	0.1558078
218	0x3d27c0d9	0.0409554
219	0xbe58046a	-0.21095434
220	0xbe03218a	-0.12805763
221	0xbe247407	-0.16059886
222	0x3e35dd4a	0.17760196
223	0xbd3500fa	-0.044190384
224	0x3e56ff0d	0.20995732
225	0x3d7bf519	0.06151304
226	0x3dba5456	0.09098117
227	0xbe301c5c	-0.17198318
228	0x3d3cc018	0.046081632
229	0xbe7047de	-0.23464915
230	0x3e3a941a	0.18220559
231	0x3dac0172	0.08398713
232	0x3e1b5200	0.15168
233	0x3dd00ad0	0.10158312
234	0xbe272dd9	-0.16326083
235	0x3e10b1c4	0.14130312
236	0x3e178f51	0.14800765
237	0xbd5c4947	-0.05378082
238	0x3d13c817	0.036079492
239	0x3d305101	0.043046
240	0x3e7b336d	0.24531336
241	0xbd02e0e4	-0.031952754
242	0xbdcfbfc3	-0.101439975
243	0x3ca3d8e3	0.02000088
244	0x3e07981c	0.13241619
245	0x3eb512ac	0.35365808
246	0x3e3d1287	0.18464099
247	0x3e2a3ef4	0.16625577
248	0xbd98f753	-0.07469048
249	0x3e12f722	0.14352086
250	0x3e7af498	0.24507368
251	0x3d15597d	0.036462296
252	0x3d903f39	0.07043309
253	0xbd91b613	-0.07114806
254	0x3cf5b113	0.029991662
255	0xbe29b00e	-0.16571066

model1.8.bias f4 [10]
0	0xbd9601ee	-0.07324587
1	0xbe279dae	-0.16368744
2	0xbdae85e1	-0.08521629
3	0x3db6f51d	0.089334704
4	0x3e072f32	0.13201597
5	0xbdec41ec	-0.11536011
6	0x3db70873	0.089371584
7	0xbde1b7f2	-0.11021413
8	0x3d327c19	0.04357538
9	0xbc950edf	-0.018195568
